example/tflite/custom_fasestdet.tflite (tflite, 383112 bytes, 139 tensors)

convolution_40 f4 [4, 1, 1, 96]
0	0x3c25f31a	0.010128761
1	0xbc4153ad	-0.011799735
2	0x3bf02e86	0.007329765
3	0xbdb13f61	-0.08654667
4	0xbdc40b85	-0.0957251
5	0x3bb4f6ed	0.0055226
6	0x3be5bc60	0.0070109814
7	0xbde00736	-0.109388754
8	0x3d46569d	0.048422445
9	0x3a4d3f6a	0.0007829579
10	0xbccb3ae6	-0.024808358
11	0xbbda563d	-0.0066631124
12	0xbd342e00	-0.04398918
13	0xbde8507c	-0.11343476
14	0xbbb93876	-0.0056524826
15	0x3bda000c	0.0066528376
16	0x3d8ceb8c	0.068808645
17	0xbc2a52d2	-0.010395722
18	0xbd22563c	-0.03963302
19	0xbd7ff284	-0.06248714
20	0xbc842aed	-0.01613375
21	0xbc84f93b	-0.016232124
22	0xbd3a1b61	-0.045436267
23	0x3b41f5d2	0.0029595983
24	0xbc31e3b2	-0.010857509
25	0xbc36b3d7	-0.011151276
26	0x3d7a816c	0.061158583
27	0x3b8fbb35	0.0043863305
28	0xbcfccb16	-0.030858558
29	0xbd4bf741	-0.049796347
30	0xbdcb9e04	-0.099422485
31	0x3c02c9aa	0.007982651
32	0x3b873e4b	0.004127299
33	0x3c74441d	0.014908818
34	0x3d97ffbf	0.074218266
35	0x3c3cb228	0.011517085
36	0x3b1a6be2	0.0023562838
37	0xbe5b238b	-0.21400277
38	0xbd11557e	-0.035481922
39	0x3d567de8	0.052366167
40	0xba4e69b8	-0.00078740297
41	0xbe4744b7	-0.19459806
42	0xbd991c69	-0.07476122
43	0xbbb00692	-0.005371877
44	0xbc112745	-0.00885946
45	0xbadba6ef	-0.0016758124
46	0x3c9a678e	0.018848207
47	0xbb850c23	-0.0040602847
48	0xb966935e	-0.00021989408
49	0xbd1699e9	-0.036767874
50	0x3d6e3c32	0.058162875
51	0xbcc996fb	-0.024608126
52	0x3d04f526	0.032460354
53	0x3d853d20	0.06505799
54	0xbb2a4444	-0.002598063
55	0x3b981724	0.0046414305
56	0xbe46450e	-0.1936228
57	0x3dd31a85	0.103077926
58	0x3d200c26	0.039074086
59	0x3cff912c	0.031197153
60	0x3d9de975	0.07710544
61	0xbccc6d0f	-0.024954347
62	0x3c2372ef	0.009976133
63	0x3a8e1e7a	0.0010842823
64	0xbd1c74f7	-0.038197484
65	0xbc8830ed	-0.016624892
66	0x3be6745c	0.007032914
67	0xbd8c1119	-0.068391986
68	0xbe088b66	-0.13334426
69	0xbc0b2ba2	-0.00849429
70	0x384d7459	4.8984166e-05
71	0xbcbad779	-0.022807823
72	0xbd5fa299	-0.054598425
73	0xbcb79723	-0.022410935
74	0xb8dead4b	-0.00010618063
75	0xbe7acf62	-0.24493173
76	0xbc0fa479	-0.008767241
77	0x3c77f525	0.015134131
78	0x3d154b8c	0.036449
79	0x3bfa9769	0.007647444
80	0x3b87f443	0.0041489913
81	0x3efe446c	0.49661577
82	0xbd215da6	-0.03939595
83	0xbd222998	-0.03959045
84	0x3e82c2eb	0.25539336
85	0xbd8c596f	-0.068529956
86	0xbd80ca81	-0.062886246
87	0xbbeb6aa8	-0.0071843453
88	0xbacd8f22	-0.0015682916
89	0xbc87642d	-0.01652726
90	0x3e971530	0.29508352
91	0xbd463015	-0.0483857
92	0xbcc27b70	-0.0237405
93	0x3c06c29d	0.00822511
94	0x3ae87657	0.0017735463
95	0xbbb53abd	-0.005530684
96	0x3da58211	0.08081449
97	0xbe2dec77	-0.16984735
98	0x3942bd2f	0.00018571758
99	0x3d8adaa8	0.067799866
100	0xbbd88429	-0.0066075516
101	0xbba7c264	-0.0051196087
102	0x3c27d6a8	0.010244049
103	0x3dcce15d	0.10003922
104	0xbccb66f9	-0.024829375
105	0x3cfa9862	0.03059024
106	0x3b220698	0.0024723168
107	0xbeb21f07	-0.34789297
108	0x3d38d3f8	0.045124024
109	0xbcd16cea	-0.02556463
110	0x3b44c18c	0.003002259
111	0xbe261e17	-0.16222416
112	0xbac2db4d	-0.0014866382
113	0xbe490b12	-0.19633129
114	0xbbd0ce04	-0.006372215
115	0xbd3cd74f	-0.04610377
116	0x3d95135b	0.072790824
117	0x3cb39281	0.021920444
118	0x3cfc4a1f	0.030797062
119	0xbd852c09	-0.0650254
120	0x3c64a06e	0.013954265
121	0xbd162b8b	-0.03666262
122	0x3e05c2c3	0.13062577
123	0x3c30b853	0.010786134
124	0xbab545bd	-0.0013829988
125	0xbc04641f	-0.008080511
126	0x3d25867b	0.040411454
127	0xbd380967	-0.04493084
128	0x3d1b4f21	0.03791726
129	0x3d967b75	0.07347766
130	0x3cd55c5a	0.026045013
131	0xbd6b41fb	-0.05743597
132	0xbb65c2e7	-0.0035058798
133	0xb9bc4da7	-0.0003591601
134	0xbde3f006	-0.11129765
135	0x3d3fea87	0.046854522
136	0x3deabed9	0.114621826
137	0x3bbc70a3	0.005750732
138	0x3c35d3de	0.011097876
139	0xbdf1ddb6	-0.11809866
140	0x3e3eb4b5	0.18623622
141	0x3c20d7a2	0.009817036
142	0xbc9a7989	-0.01885678
143	0x3b3887ca	0.0028157108
144	0xbb80e063	-0.003932999
145	0x3ce62f7e	0.028098818
146	0x3d7945a0	0.060857415
147	0x3d37e06d	0.044891763
148	0xbbc2fc00	-0.005950451
149	0x3bbe46d4	0.005806783
150	0x3e8ae852	0.2713037
151	0x3c91b05f	0.017784296
152	0xb94365c6	-0.00018634563
153	0xbcc2c4ff	-0.023775576
154	0x3dd9c550	0.106333375
155	0x3ce973fe	0.028497692
156	0x3c3a2060	0.011360258
157	0x3ce7143f	0.028207896
158	0xbeab3b7e	-0.33443826
159	0xbd7937c6	-0.060844205
160	0x3c65f7ef	0.014036163
161	0xbe20d2fd	-0.15705486
162	0x3a6c825b	0.000902211
163	0x3c60bbaf	0.013716622
164	0xbcd7e9bc	-0.02635657
165	0x3c1d3f09	0.009597548
166	0xbe76d384	-0.24104124
167	0xbcd8412f	-0.02639827
168	0x3e0062e9	0.12537731
169	0x39b1ef99	0.00033938585
170	0x3ba79dd7	0.0051152515
171	0xbb474ec1	-0.0030411931
172	0x3c9af8a1	0.018917384
173	0x3d7619e1	0.060083274
174	0xbb1a1214	-0.002350931
175	0x3cd86c4e	0.026418831
176	0x3e83ec82	0.2576638
177	0x3c1c8538	0.009553246
178	0xbb8e20c7	-0.0043374035
179	0xbcd9a8e8	-0.026569799
180	0xbc84188d	-0.016124988
181	0x3dad3db9	0.08459038
182	0xbbbda37d	-0.0057873116
183	0xbca89a8a	-0.020581502
184	0x3e8392e5	0.2569801
185	0xbc34dab8	-0.011038475
186	0xbba71449	-0.0050988537
187	0x3deb64a2	0.114938036
188	0x3de4ac97	0.111657314
189	0x3c3c3e94	0.011489529
190	0xbe2bd644	-0.16780955
191	0x3cb9e539	0.02269231
192	0x3c988c41	0.018621566
193	0xbc9ced42	-0.019156102
194	0x3a6739bc	0.0008820554
195	0x3e02966b	0.12752692
196	0xbc6fad8d	-0.01462878
197	0x3b9eef72	0.0048503214
198	0x3bf95397	0.0076088416
199	0x3c82f42f	0.015985576
200	0x3dab6883	0.083695434
201	0x3a771daf	0.00094267254
202	0x3e54af54	0.20770007
203	0xbc9196df	-0.017772136
204	0x3db0951e	0.08622192
205	0xbe566971	-0.2093866
206	0xbce4a2f8	-0.02790974
207	0xbba7ccd9	-0.0051208553
208	0x3c7c9cfe	0.015418289
209	0x3c918b72	0.017766688
210	0xbdc7439a	-0.09729691
211	0x3e3d6880	0.18496895
212	0xbbc6d48f	-0.0060678194
213	0x3c20cc1a	0.009814287
214	0xbee4cd01	-0.44687656
215	0x3e3ba9c7	0.18326484
216	0x3cf7380b	0.03017809
217	0x3ca732db	0.020409992
218	0x3d5f5cca	0.05453185
219	0xbc698180	-0.014252067
220	0x3e2ca695	0.16860421
221	0x3d12c24d	0.03582983
222	0x3ea2bcff	0.31784818
223	0x3b0c1a4b	0.0021377977
224	0x3bbbe427	0.005733985
225	0xbb76e064	-0.0037670368
226	0xbe9ddc36	-0.3083207
227	0x3d91721e	0.07101844
228	0xb9aad51c	-0.00032583706
229	0xbe7dad7b	-0.24773209
230	0xbcae1510	-0.021250278
231	0xbec03a81	-0.37544635
232	0xbccb6854	-0.024830021
233	0x3dabdafe	0.08391379
234	0xbc257297	-0.010098121
235	0x3cd2eabe	0.0257467
236	0xbd00fcfd	-0.03149127
237	0x3bc53aca	0.006018971
238	0x3d3487fc	0.044074997
239	0x3b355d83	0.0027674146
240	0xbaf1141b	-0.0018392833
241	0x3d1d8ca7	0.038464215
242	0xbcca759b	-0.024714282
243	0xbd0f5201	-0.034990314
244	0xbf048ee8	-0.5178056
245	0xbcfcf964	-0.030880637
246	0x3ac7cb19	0.0015243023
247	0x3be110ae	0.0068684435
248	0xbcc3d061	-0.023903074
249	0xbe74fc61	-0.239244
250	0xbb8de34e	-0.0043300753
251	0xbe823118	-0.2542808
252	0x3d1717ef	0.03688806
253	0x3d8e49db	0.069476806
254	0x3bfcc5c4	0.007714005
255	0xbb71977d	-0.0036863976

convolution_39 f4 [1, 1, 1, 96]
0	0x3e836d5c	0.25669372
1	0x3c824407	0.015901579
2	0x3da0e695	0.0785648
3	0x3bb6697f	0.0055667753
4	0x3e5b227e	0.21399876
5	0xbd958511	-0.07300771
6	0x3c836d16	0.016043227
7	0xbe0a5e73	-0.13512592
8	0xbe4568bb	-0.19278233
9	0xbd8dc7de	-0.06922887
10	0x3d8839b5	0.06651632
11	0xbd901120	-0.07034516
12	0xbe8dea28	-0.2771771
13	0x3d678232	0.05652065
14	0xbcf769ca	-0.030201811
15	0x3e935b56	0.2878062
16	0x3c5ded7e	0.013545392
17	0x3ed43330	0.41445303
18	0x3e02105d	0.12701555
19	0xbcb998ed	-0.022655929
20	0xbdde9d34	-0.10869828
21	0x3a3fb855	0.00073135394
22	0x3e05c164	0.13062054
23	0xbd10e624	-0.03537573
24	0x3e29bf9d	0.16577001
25	0xbe15108b	-0.14557092
26	0xbb234d33	-0.002491784
27	0x3dcd9b47	0.100393824
28	0x3dbd49ed	0.09242616
29	0xbe630b0a	-0.2217218
30	0x3dcf098d	0.101092435
31	0x3cff9d1f	0.03120285
32	0x3c65365c	0.013990011
33	0xbd275360	-0.040850997
34	0x3d5815dc	0.05275522
35	0xbe31b5ea	-0.17354551
36	0x3c8be62c	0.017077528
37	0xbe9ddaff	-0.30831143
38	0xbc194644	-0.009355132
39	0x3df61df3	0.12017431
40	0x3d082c77	0.03324553
41	0xbd52b628	-0.05144325
42	0xbd0a9dc6	-0.03384187
43	0x3d89e05c	0.06732246
44	0x3c3fd65d	0.011708823
45	0xbdc25680	-0.09489155
46	0xbdc9b337	-0.09848636
47	0x3d74baed	0.05974858
48	0x3ae500b1	0.001747152
49	0xbe247b14	-0.16062576
50	0x3cecaa5a	0.028889824
51	0xbd878d00	-0.066186905
52	0xbb91991b	-0.0044433004
53	0x3d8661e2	0.065616384
54	0xbef0a1c2	-0.4699841
55	0xbbccdf7c	-0.0062522274
56	0x3d1f22f5	0.038851697
57	0xbd929b8f	-0.07158577
58	0xbe61469d	-0.21999593
59	0x3cdd8fcc	0.027046107
60	0x3ddbfe4b	0.10741862
61	0x3e942d91	0.28941014
62	0x3f1462e4	0.57963395
63	0x3e27af10	0.16375375
64	0x3e61c76c	0.2204873
65	0x3d696915	0.05698498
66	0xbc65f106	-0.014034515
67	0x3cc68b63	0.024236387
68	0xbebce454	-0.3689295
69	0x3f370b3c	0.7150152
70	0xbc809558	-0.015696213
71	0xbd16784b	-0.036735814
72	0xbcd19bbe	-0.025586959
73	0xbb82622d	-0.0039789886
74	0xbc98ee45	-0.018668303
75	0xbbeb0a35	-0.0071728476
76	0x3cf912bc	0.030404441
77	0x3d879a97	0.066212825
78	0xbe511406	-0.20417795
79	0x3ecb30bf	0.39685628
80	0xbdd7b401	-0.1053238
81	0x3dab9784	0.08378509
82	0x3dc22359	0.09479398
83	0xbe5013b7	-0.2032002
84	0x3d68bc1a	0.056820013
85	0x3e85c007	0.26123068
86	0x3fb819b7	1.4382848
87	0xbd3cad9f	-0.046064015
88	0x3eaff61e	0.3436746
89	0x3c9fe728	0.019519404
90	0x3cc0a1ca	0.023514647
91	0x3d653181	0.055955414
92	0xbe872eb3	-0.26402816
93	0x3db4ebf0	0.08834064
94	0x3e923599	0.28556517
95	0x3de0d601	0.10978318

depthwise_18 f4 [1, 3, 3, 96]
0	0x3e16dda2	0.14732984
1	0x3bdf0d37	0.0068069953
2	0x3eabba5c	0.33540618
3	0xbed9476e	-0.4243731
4	0x3a8cb791	0.0010735859
5	0x3f137d95	0.576135
6	0x3e3ad34a	0.18244663
7	0xbdf686aa	-0.12037404
8	0xbe60ce8b	-0.2195379
9	0xbec62791	-0.38702062
10	0xbf16f067	-0.58960575
11	0x3e337300	0.17524338
12	0xbe6ff485	-0.2343312
13	0xbd081561	-0.033223514
14	0x3d01b7ff	0.031669613
15	0x3f0e208a	0.555184
16	0x3e8f5f41	0.2800236
17	0x3ef9d578	0.48795676
18	0xbe9ba14e	-0.30396503
19	0x3e8fdc4a	0.28097755
20	0x3fb20d52	1.3910315
21	0x3f496120	0.78663826
22	0x3ea0a2d5	0.3137423
23	0x3f9aa865	1.208264
24	0xbd1f960a	-0.038961448
25	0x3fb5b1db	1.4194902
26	0x3ef64684	0.48100674
27	0x3e0c9dee	0.1373212
28	0x3e97cb8e	0.29647487
29	0x3e8ea67c	0.27861392
30	0xbda08228	-0.07837325
31	0x3e3643c6	0.17799291
32	0x3fefc9a6	1.8733413
33	0x3fd3a401	1.6534425
34	0xbf49dd83	-0.78853625
35	0x3f25c77b	0.6475751
36	0x3e974b94	0.2954985
37	0x3ec6246f	0.38699672
38	0xbf160244	-0.5859721
39	0xbdd2ec8e	-0.102990255
40	0x3d8e4e7c	0.069485635
41	0xbe23ec0f	-0.16008018
42	0xbf89915e	-1.0747488
43	0xbf3f14d7	-0.74641174
44	0xbdbdf25d	-0.09274743
45	0xbf0276be	-0.50962436
46	0xbe844c08	-0.25839257
47	0x3ed44648	0.4145987
48	0x3f750ac6	0.95719564
49	0x3f0b6677	0.54453224
50	0x3b9d9da1	0.0048100506
51	0x3e6c5e09	0.23082747
52	0xbe9cb1ea	-0.30604488
53	0x3f609f79	0.87743336
54	0x3d0a9c1c	0.033840284
55	0x3dede714	0.1161634
56	0xbdbd38d9	-0.092393585
57	0xbe5be4be	-0.21473977
58	0xbebcffba	-0.36913854
59	0xbe8cbcd2	-0.27487808
60	0x3c4e922a	0.01260809
61	0x3ddbdba6	0.10735254
62	0xbf398056	-0.7246145
63	0x3ddcdf37	0.10784762
64	0x3ed6dba2	0.41964442
65	0x3d4f824a	0.050661363
66	0x3e89a72c	0.26885355
67	0x3c2e52f6	0.010639897
68	0xbf188dda	-0.5959145
69	0x3ed42bc6	0.41439646
70	0xbe03de1b	-0.12877695
71	0xbf51a893	-0.8189785
72	0xbe145854	-0.1448682
73	0xbef523a7	-0.47878763
74	0x3ed3e85e	0.4138822
75	0x3f298a04	0.6622622
76	0xbe837488	-0.25674844
77	0xbdeec6d0	-0.11659014
78	0xbf0f02a8	-0.5586343
79	0x3ee5dded	0.44895878
80	0x3f8094b5	1.0045382
81	0xbf5bcb31	-0.8585692
82	0xbec301b2	-0.3808723
83	0xbe03b72a	-0.1286284
84	0x3d9d3aa5	0.07677201
85	0xbf15676d	-0.5836094
86	0xbdfb91dc	-0.1228368
87	0x3fbadfb7	1.4599522
88	0xbede226a	-0.4338563
89	0xbe95caa2	-0.2925616
90	0x3c1887af	0.009309693
91	0xbf7fcaa8	-0.99918604
92	0xbe16314c	-0.14667243
93	0xbdc5d80e	-0.0966035
94	0x3dea4137	0.1143822
95	0xbefb3fc7	-0.49072096
96	0x3dfb15d9	0.122600265
97	0x3d84c98d	0.06483755
98	0x3db61ef4	0.088926226
99	0xbe962d59	-0.29331473
100	0x3ebe015b	0.3711041
101	0x3e9b1afc	0.30294025
102	0x3ec6523f	0.38734624
103	0xbf8c3c80	-1.0955963
104	0xbea37f2c	-0.31932962
105	0xbfb16d15	-1.3861414
106	0xbfe9ee88	-1.8275919
107	0x3d06bb30	0.03289336
108	0x3fd7dab8	1.6863623
109	0x3e5c5c24	0.21519524
110	0x4003f320	2.0617142
111	0x3fd23b28	1.6424303
112	0x3f22b32b	0.6355464
113	0x3eeb732e	0.45986313
114	0x3fb64bb5	1.4241854
115	0x3eb43dc1	0.35203364
116	0x3e86e66c	0.26347673
117	0x3f5e1c5c	0.8676202
118	0x4014cb0a	2.3248925
119	0xbf1ccfe1	-0.612547
120	0x40141d58	2.314291
121	0x3e8aff12	0.27147728
122	0x3f930b7e	1.1487882
123	0x3eadb7a3	0.33929166
124	0x3f3eebde	0.74578655
125	0x3d0a43e9	0.03375617
126	0xbf522e50	-0.8210192
127	0x3e0821c7	0.13294135
128	0x3fa186b7	1.2619237
129	0x3f7a82f5	0.97856075
130	0x3eb69545	0.3566076
131	0x3e8af92e	0.27143234
132	0x3ef68b31	0.4815307
133	0xbcc1f42e	-0.023676004
134	0x3da171e4	0.07883051
135	0xbe354b65	-0.17704542
136	0xbf3e5c44	-0.74359536
137	0xbec70eb6	-0.3887841
138	0xbf077bd5	-0.5292333
139	0xbf722405	-0.9458621
140	0xbeab6f23	-0.33483228
141	0x3f0d5b7d	0.55217725
142	0xbebed509	-0.37271908
143	0x3d6afe94	0.05737169
144	0x3ee958fb	0.455757
145	0xbe48a0c7	-0.19592582
146	0xbe1d5d2a	-0.1536757
147	0xbe05bcb2	-0.13060263
148	0xbe03db6c	-0.12876672
149	0x3f0dd2da	0.5539986
150	0xbe74c6c7	-0.23903953
151	0x3f14d8f1	0.58143526
152	0x3d70da90	0.058802187
153	0xbfbb4cee	-1.4632852
154	0xbf0b930f	-0.5452127
155	0xbe322018	-0.17395055
156	0x3f01fde8	0.50778055
157	0xbebcf814	-0.3690802
158	0xbfc5e8a3	-1.546162
159	0xbdce0d72	-0.10061158
160	0x3dd0b2bd	0.101903416
161	0x3dd898a1	0.10575987
162	0xbc6d7fb8	-0.014495783
163	0xbebadbfe	-0.36495966
164	0xbf2046ae	-0.6260785
165	0x3f25bb4e	0.6473893
166	0xbf22823f	-0.6347999
167	0xbf0b12cf	-0.54325575
168	0x3eeba9fa	0.4602812
169	0xbe7d3e76	-0.24730858
170	0xc0222c23	-2.533944
171	0x3dd9092d	0.10597453
172	0xbee76ce4	-0.45200264
173	0x3ea81154	0.3282572
174	0xbebd1fe8	-0.36938405
175	0x3f5ba6ae	0.8580121
176	0x3f2aa687	0.6666035
177	0x3f0060c5	0.5014766
178	0x3f0431ca	0.5163847
179	0x4004f6e7	2.0775697
180	0x3e9b39ba	0.3031748
181	0xbea66327	-0.32497522
182	0xbea76e9b	-0.32701573
183	0x3fe26a8c	1.7688766
184	0xbd0c0a48	-0.034189492
185	0xbfc0d04f	-1.5063571
186	0x3f4eae2e	0.8073453
187	0xbed54128	-0.41651273
188	0xc054850d	-3.3206208
189	0xbd2b70a1	-0.04185546
190	0xbcefba46	-0.029263627
191	0x3eb0c858	0.3452785
192	0x3d972b1e	0.07381271
193	0xbd1323a1	-0.03592265
194	0x3e9a8b85	0.3018457
195	0xbef1be6a	-0.47215587
196	0x3d7dc76d	0.061957765
197	0x3ee21d23	0.44162855
198	0x3e86820f	0.26271102
199	0xbe1d4ec2	-0.15362075
200	0xbe6d52fc	-0.23176187
201	0xbf16a71c	-0.5884874
202	0xbf25bd42	-0.6474191
203	0x3db49a52	0.08818497
204	0xbdab5300	-0.0836544
205	0xbd3e1079	-0.04640243
206	0x3dc31138	0.095247686
207	0x3ff8ed10	1.9447346
208	0x3e61069e	0.2197518
209	0x3f129983	0.5726549
210	0xbded5d8b	-0.115901075
211	0x3eb58b4d	0.3545784
212	0xbf24fbfd	-0.64447004
213	0x3f7fd31c	0.999315
214	0x3ed29f83	0.41137323
215	0x3f9fd5d1	1.2487127
216	0x3e6a77e3	0.22897296
217	0x3f9c32c5	1.2202994
218	0x3ebb1071	0.3653598
219	0x3e8bdb62	0.27315813
220	0x3eac728c	0.33681142
221	0x3e45306d	0.19256754
222	0xbde05068	-0.10952836
223	0x3eceda9d	0.40401164
224	0x3ffc0738	1.9689703
225	0x3fce4299	1.6114074
226	0x3fbd2a7a	1.4778588
227	0x3f29d5c2	0.66341794
228	0x3eeba19c	0.46021736
229	0x3eb2219f	0.34791276
230	0xbf104ee0	-0.56370354
231	0xbdea180e	-0.11430369
232	0xbd8e31c9	-0.069430895
233	0xbe96e1d8	-0.2946918
234	0xbf8ad9a3	-1.0847667
235	0xbf9cf097	-1.2260922
236	0xbdb1efc5	-0.086883105
237	0xbeea233b	-0.45730004
238	0xbeaef092	-0.34167916
239	0x3e931f6d	0.28734913
240	0x3f809e6e	1.0048349
241	0x3f03c0a3	0.51465815
242	0xbe14bf98	-0.14526212
243	0x3e942b8a	0.28939468
244	0xbed0964a	-0.4073966
245	0x3f92bec9	1.1464473
246	0x3e329c78	0.174425
247	0xbd354787	-0.044257667
248	0x3b03d1ca	0.0020114058
249	0x3d093f6a	0.033507742
250	0xbeda51d3	-0.42640552
251	0xbe4f4e7c	-0.20244783
252	0x3e8c89ac	0.27448785
253	0x3d33c97b	0.04389332
254	0xbf3ca286	-0.7368549
255	0xbb952268	-0.0045512207

depthwise_17 f4 [1, 3, 3, 96]
0	0x3f2c6f52	0.6735736
1	0xbe5d3a12	-0.21604183
2	0x3e908033	0.28222808
3	0x3efb6016	0.49096745
4	0x3da9d205	0.08292011
5	0xbf49337b	-0.7859418
6	0x3f0530aa	0.5202738
7	0xbf415677	-0.7552256
8	0x3f2b4c2f	0.6691312
9	0x3f227c46	0.63470876
10	0xbe8d436e	-0.27590507
11	0xbf00ba7d	-0.5028456
12	0xbe249372	-0.16071871
13	0xbeae0c83	-0.3399392
14	0x3f6994da	0.91242754
15	0x3f94ef52	1.1635535
16	0x3fade3e6	1.3585174
17	0x3f1beba0	0.6090641
18	0x3eb882ba	0.36037236
19	0x3ddbe7dd	0.10737584
20	0xbdcf81cb	-0.10132178
21	0x3ed48a81	0.4151192
22	0xbe6d5a20	-0.23178911
23	0xbe90993c	-0.2824191
24	0xbedad640	-0.42741585
25	0xbf0bf2d2	-0.5466739
26	0xbfacc0a9	-1.3496295
27	0xbeb82b33	-0.35970458
28	0x3f3af69b	0.7303254
29	0xbf387931	-0.72059923
30	0x3e10f404	0.14155585
31	0xbf394ca9	-0.723826
32	0xbec78637	-0.38969585
33	0x3f0837c1	0.53210074
34	0xbe26a4f6	-0.16273865
35	0x3f228844	0.63489175
36	0x3d9eee76	0.077603266
37	0x3edbf548	0.42960572
38	0xbf9114a1	-1.133442
39	0x3e0a890e	0.13528845
40	0xbf8d8a78	-1.1057882
41	0xbda040a2	-0.07824828
42	0xbe9d0c68	-0.30673528
43	0x3ea8f6e9	0.33000877
44	0x3e40dd1c	0.18834347
45	0x3f2220b0	0.6333113
46	0xbea24b20	-0.3169794
47	0x3ebf7dad	0.3740057
48	0x3fa5007e	1.2890775
49	0x3f47657d	0.77889234
50	0x3ee588ba	0.44830877
51	0x3c38a97d	0.011270878
52	0xbf4380f2	-0.7636863
53	0xbf64e263	-0.8940794
54	0x3f4e858a	0.80672514
55	0x3e2571e1	0.16156723
56	0x3e7130d0	0.23553777
57	0x3e98ed20	0.29868412
58	0x3f093d42	0.53609097
59	0x3f645408	0.8919072
60	0x3ed2d148	0.41175294
61	0xbe2f8015	-0.17138703
62	0xbf159061	-0.5842343
63	0x3e8ca634	0.27470553
64	0xbf60b903	-0.87782305
65	0x3d05df24	0.032683507
66	0xbd8993ed	-0.06717668
67	0x3d89c8ec	0.06727776
68	0xbe96a6cf	-0.2942414
69	0xbdba5280	-0.09097767
70	0x3ee6b86e	0.45062584
71	0xbeed2985	-0.4632074
72	0x402a2af2	2.6588712
73	0xbe8a5362	-0.2701674
74	0xbd13ad24	-0.03605379
75	0x3e986cc6	0.29770488
76	0xbefff19c	-0.4998902
77	0xbf1bcfe9	-0.6086412
78	0xbf05332e	-0.5203122
79	0x3e66f42b	0.2255408
80	0xbeda694d	-0.42658463
81	0xbddb6e80	-0.107144356
82	0x3dafcc93	0.08583941
83	0x3f3f584c	0.74744105
84	0xbe7798bd	-0.24179359
85	0xbecf81b9	-0.40528658
86	0x3f554830	0.83313274
87	0x3e942dae	0.289411
88	0x3f23fd35	0.6405824
89	0xbf24a137	-0.64308494
90	0x3f36e68b	0.7144553
91	0x3eca102c	0.39465463
92	0xbf071923	-0.5277273
93	0xbe0c52f4	-0.13703519
94	0xbe13071d	-0.14358182
95	0xbee55309	-0.44789913
96	0x3f235c3d	0.6381262
97	0xbd9cc2bd	-0.07654331
98	0x3f606d25	0.8766654
99	0xbd2c691e	-0.042092435
100	0x3ed84ef5	0.4224774
101	0x40277244	2.6163492
102	0x3f92d062	1.1469843
103	0xbef32d64	-0.47495568
104	0x3fc28627	1.519719
105	0xbdd7a4ba	-0.10529466
106	0xbf0b13d8	-0.54327154
107	0xbf1ecfe5	-0.6203597
108	0xbf3595c8	-0.70931673
109	0xbe5ad4fe	-0.21370313
110	0xbe01cd7c	-0.12676042
111	0x4008ba03	2.1363533
112	0x3f1f6483	0.62262744
113	0xbd7e7055	-0.062118847
114	0xbd9b297f	-0.07576274
115	0x3f2a79f4	0.66592336
116	0xbd99a7d2	-0.07502712
117	0x3f2084e5	0.6270278
118	0xbedc6e3e	-0.43052858
119	0xbcb4f28e	-0.022088315
120	0xbf2c4573	-0.6729347
121	0xbfc411e0	-1.5317955
122	0xbfa27982	-1.2693331
123	0x3d1adb45	0.037806768
124	0x3f23f725	0.6404899
125	0xbf3e17bd	-0.7425497
126	0x3e223d7f	0.15843771
127	0x3e2746c7	0.16335593
128	0x4038a1b6	2.88487
129	0xbe030ef9	-0.1279868
130	0xbd5739cf	-0.052545365
131	0x3e9a4503	0.30130777
132	0x3ea69dc1	0.32542232
133	0x3e314411	0.17311122
134	0xbf28611b	-0.6577317
135	0x3f8ddf6e	1.108381
136	0x3f5a23cc	0.8521087
137	0xbf6e60ca	-0.9311644
138	0xbf035c35	-0.5131257
139	0x3f797e23	0.97458094
140	0xbd6b7798	-0.0574871
141	0xbc0afdc5	-0.008483355
142	0xbf59f88a	-0.85144866
143	0xbd48969a	-0.04897175
144	0x3f8a6759	1.0812789
145	0x3f6a8c64	0.9162047
146	0x400aa06a	2.166041
147	0x3e220429	0.158219
148	0xbf61a057	-0.88135284
149	0x3dab4804	0.08363345
150	0x3fa80471	1.3126355
151	0x3ce9fa2e	0.028561678
152	0xbf3d806c	-0.7402408
153	0x3e195b06	0.14976129
154	0x3f04bd03	0.5185091
155	0x3f09c6e3	0.538191
156	0xbfad54b1	-1.3541471
157	0xbf031af1	-0.51212984
158	0x3c9c2307	0.019059671
159	0x4008ebe0	2.1393967
160	0x3fb0ef70	1.382307
161	0x3dbfe40e	0.0936967
162	0x3f751e82	0.95749676
163	0xbe6ed115	-0.23321946
164	0x3f451e0e	0.76998985
165	0xbe43c4c1	-0.19118024
166	0x3eb3b54c	0.35099256
167	0xbfb50bef	-1.4144267
168	0x3d332e1b	0.04374514
169	0x400887b7	2.1332834
170	0x3ec39648	0.38200593
171	0xbe00429f	-0.12525414
172	0xbf31a787	-0.6939625
173	0xbfaf1905	-1.367951
174	0xbe1be58a	-0.15224281
175	0xbcdd1d11	-0.026991399
176	0x3e400384	0.18751341
177	0x3e2d6823	0.16934256
178	0xbef1d460	-0.47232342
179	0xbdf95aa4	-0.121754915
180	0xbe871f00	-0.2639084
181	0xbe390021	-0.18066455
182	0xbf6b8d05	-0.92012054
183	0xbde93e39	-0.11388821
184	0x3fb5b43a	1.4195626
185	0xbfd933d3	-1.696894
186	0x3f21ed3e	0.6325263
187	0x3f7960fd	0.9741362
188	0xbf85241b	-1.0401644
189	0xbf65e355	-0.89800006
190	0x3f8b8236	1.0899112
191	0xbf7f1c80	-0.9965286
192	0x3f2fbcd6	0.68647516
193	0xbe78f55e	-0.2431235
194	0x3e92db3a	0.28682882
195	0xbf3066fb	-0.68907136
196	0x3d95eaa3	0.07320144
197	0xbf18596b	-0.5951144
198	0x3f32b1a2	0.69802296
199	0xbf68d92c	-0.9095638
200	0x3f3aa043	0.7290079
201	0x3f7490f2	0.9553367
202	0xbd9d10f8	-0.07669252
203	0xbf1daa09	-0.6158758
204	0xbee48a33	-0.44636688
205	0xbe821b54	-0.25411475
206	0x3f69011e	0.9101733
207	0x3f8d1941	1.1023332
208	0x3fc08a25	1.5042158
209	0x3f09fc8c	0.5390098
210	0x3eb0b468	0.3451264
211	0x3ec045f7	0.3755338
212	0xbd37ec0b	-0.044902842
213	0x3eb5a424	0.35476792
214	0xbe27641c	-0.16346782
215	0xbe515bf5	-0.20445235
216	0xbe980390	-0.29690218
217	0xbf3e12bd	-0.7424734
218	0xbfb97dfc	-1.4491572
219	0xbe265bc4	-0.16245943
220	0x3f6b9a0c	0.9203193
221	0xbecfcdc9	-0.4058669
222	0x3e9ea0ca	0.30982047
223	0x3f265cc6	0.6498531
224	0xbe812645	-0.2522451
225	0x3f1558db	0.5833871
226	0xbe03a6eb	-0.12856643
227	0x3efd8321	0.49514106
228	0x3d70528f	0.058672484
229	0x3f00615e	0.5014857
230	0xbfa29d93	-1.2704338
231	0x3ecd64ce	0.4011597
232	0xbf91e2b6	-1.1397312
233	0xbece0f89	-0.40246227
234	0xbecbf15d	-0.39832583
235	0x3e513f3c	0.20434278
236	0xbf1a2617	-0.6021437
237	0xbede2a80	-0.433918
238	0xbefa5897	-0.48895714
239	0xbf2dfc5b	-0.6796319
240	0x3f9d1394	1.22716
241	0x3f485e3f	0.7826881
242	0x3f59baa7	0.85050434
243	0x3db584af	0.08863198
244	0xbf52bf1b	-0.82322854
245	0x3f266a1e	0.6500567
246	0x3f798042	0.9746133
247	0x3dfedda1	0.12444616
248	0x3eacd548	0.3375647
249	0x3e6004d4	0.21876842
250	0x3f07b7ec	0.5301502
251	0x3f8a3d1d	1.07999
252	0x3ebc1a26	0.367387
253	0xbd97951c	-0.07401487
254	0x3e49f916	0.19723925
255	0x3e6dad56	0.23210654

depthwise_16 f4 [1, 3, 3, 96]
0	0x3f5419a3	0.8285162
1	0xbf32b49f	-0.69806856
2	0x3eddbf37	0.43309948
3	0x3f33f3ae	0.702937
4	0xbee74701	-0.4517136
5	0x3f09bf73	0.53807753
6	0x3f71a4e5	0.94392234
7	0xb9953076	-0.000284556
8	0x3f113073	0.5671455
9	0x3f4a055a	0.78914416
10	0xbf0d18a3	-0.5511572
11	0xbf228272	-0.63480294
12	0xbeb9a3ce	-0.36257786
13	0x3ea65b58	0.32491565
14	0xbe7cea48	-0.24698746
15	0x3cccde5f	0.025008379
16	0x3f1087c2	0.5645715
17	0xbe513f29	-0.2043425
18	0x3f1030ef	0.56324667
19	0x3eb1b438	0.34707808
20	0x3f25f09b	0.6482026
21	0x3e7ed48b	0.24885766
22	0xbf304e59	-0.6886955
23	0x3d0f5d5e	0.03500115
24	0xbe8bbc8d	-0.2729229
25	0xbe1200a0	-0.14258051
26	0x3f3c6ed0	0.73606586
27	0xbd15d0dd	-0.03657614
28	0x3f016b45	0.50554305
29	0xbed70a63	-0.42000112
30	0xbe40b390	-0.18818498
31	0x3e94b6a5	0.29045597
32	0xbf019ea0	-0.5063267
33	0xbd61be56	-0.05511316
34	0xbf127693	-0.5721218
35	0x3ee76c98	0.45200038
36	0x3e2f328a	0.17109123
37	0x3dec9e24	0.115536004
38	0x3e5afca4	0.21385437
39	0xbf2b1fc6	-0.6684536
40	0x3f0f4b04	0.5597384
41	0x3e201459	0.15632762
42	0x3f55b0de	0.83473
43	0xbe19343c	-0.14961332
44	0x3db4f391	0.08835519
45	0xbea26c80	-0.31723404
46	0x3e5d26e6	0.2159687
47	0xbfb42ea2	-1.4076731
48	0x3f166403	0.58746356
49	0xbeef5ccc	-0.46750486
50	0x3f8fe639	1.1242133
51	0x3efb6014	0.4909674
52	0x3ec68098	0.38769984
53	0x3f50013c	0.81251884
54	0x3e3da372	0.1851938
55	0x3f756337	0.95854515
56	0xbcab1ff9	-0.02088927
57	0xbe12ac80	-0.14323616
58	0xbf187aa7	-0.5956215
59	0xbfd335f1	-1.6500837
60	0xbe23663a	-0.15956965
61	0x3ea9a26f	0.3313174
62	0x3f1ffe8e	0.62497795
63	0x3e908b9b	0.2823151
64	0x3c397e10	0.01132156
65	0xbf138d5b	-0.57637566
66	0xbf355827	-0.70837635
67	0x3ef92dcc	0.48667753
68	0xbf63d961	-0.8900357
69	0xbee35cf6	-0.4440686
70	0xbf3dc37f	-0.7412643
71	0xbedc69a6	-0.43049353
72	0xbf322b89	-0.6959768
73	0xbf47a03d	-0.7797888
74	0x3e094926	0.1340681
75	0x3e7d03bd	0.24708457
76	0x3d827d23	0.06371524
77	0x3f129940	0.5726509
78	0xbf80a798	-1.0051146
79	0x3f437564	0.76351
80	0x3f0f4663	0.55966777
81	0x3e8f3a67	0.27974245
82	0x3f5d9cc7	0.8656735
83	0x3f7a816b	0.97853726
84	0xbcc6cc32	-0.02426729
85	0xbebaf608	-0.36515832
86	0xbe121c23	-0.14268546
87	0x3f3ae9c9	0.7301298
88	0xbe4111d1	-0.18854453
89	0xbcc6ca55	-0.024266401
90	0x3f826526	1.0187118
91	0xbf3e3334	-0.7429688
92	0xbf60d6b5	-0.87827617
93	0x3e49d467	0.19709931
94	0xbea4d7d6	-0.3219592
95	0x3f3aeff6	0.730224
96	0x3f8b4ed9	1.0883437
97	0xbfa06774	-1.2531571
98	0x3fbc35db	1.4703935
99	0x3ed0f754	0.40813696
100	0xbfddcaf3	-1.732756
101	0x3f4c856f	0.79891104
102	0x3f0b8284	0.54496026
103	0x3e94be51	0.2905145
104	0xbf21c621	-0.63192946
105	0xbc9b1821	-0.018932404
106	0xbf8ea6d7	-1.1144665
107	0xbed7c1e2	-0.42140108
108	0xbf2efc7a	-0.68354
109	0xbf090ce3	-0.5353529
110	0xc0067024	-2.1005945
111	0x3e055ea3	0.13024382
112	0x3fb4f371	1.4136792
113	0xbfc1733c	-1.5113292
114	0x3e81646f	0.25271937
115	0x3f18156f	0.59407705
116	0x3fbc40b8	1.470725
117	0x3b884303	0.004158379
118	0xbec39fc5	-0.38207832
119	0x3c9a1137	0.018807037
120	0xbf39f7c9	-0.72643715
121	0x3ea4bf07	0.32176992
122	0xbf72ac45	-0.9479411
123	0x3ed3ae36	0.4134385
124	0x3ed6a6a9	0.41924027
125	0xbfadf888	-1.3591471
126	0xbe9be4f8	-0.30448127
127	0x3f5973f4	0.84942555
128	0xbe8f0cc9	-0.27939442
129	0xbeab786f	-0.3349032
130	0x3cd70485	0.026247272
131	0x3cd56ee8	0.02605386
132	0xbec9ab80	-0.39388657
133	0x3db52caf	0.08846413
134	0x3f3f022d	0.74612695
135	0x3e027520	0.12739992
136	0xbf5622fc	-0.8364713
137	0x401b6e1a	2.428595
138	0x3f006a0b	0.5016181
139	0x3db8986e	0.09013449
140	0x3b785dd9	0.0037897734
141	0xbdeaea9c	-0.114705294
142	0x3f006e94	0.5016873
143	0xbdd29ff4	-0.10284415
144	0xbf55a71a	-0.834581
145	0xbf3d39df	-0.7391643
146	0xbb16c745	-0.0023006957
147	0x3e860ac6	0.26180094
148	0x3f0bad7d	0.545616
149	0x3fa01f1f	1.2509497
150	0x3d6bb320	0.057543874
151	0x3eb04205	0.3442537
152	0x3e415605	0.1888047
153	0x3de57348	0.11203629
154	0xbf21fc8e	-0.6327599
155	0x3c8d9bd8	0.017286226
156	0x3e654306	0.22388849
157	0x3d9d4989	0.07680041
158	0x3ef73fc9	0.48290852
159	0x3e9bf64b	0.30461344
160	0xbeaebc57	-0.34128067
161	0xbf045267	-0.51688236
162	0xbf9aa8b3	-1.2082733
163	0x3fab57ff	1.3386229
164	0xbde49d68	-0.11162835
165	0xbf4fff19	-0.81248623
166	0xbd92ac0d	-0.07161722
167	0xbf25a4f5	-0.6470483
168	0xbde8175a	-0.11332579
169	0xbf3a36bf	-0.72739786
170	0x3fa48dd3	1.2855781
171	0x3ec10db5	0.3770577
172	0xbecfe682	-0.4060555
173	0xbf58e09a	-0.84717715
174	0xbf8f0f9d	-1.117664
175	0x3d9705d5	0.07374159
176	0x3f7f9ae6	0.9984573
177	0x3fc01274	1.5005631
178	0xbe2a5627	-0.16634427
179	0xbf12bbf9	-0.57318074
180	0x3d149bfa	0.036281563
181	0x3e46f019	0.19427527
182	0x3fb1384d	1.3845307
183	0x3ef8b292	0.48573738
184	0x3f0496c3	0.51792544
185	0xbeb9fdac	-0.3632635
186	0x3f267bac	0.6503246
187	0xbf8565e4	-1.042172
188	0xbea280b9	-0.31738833
189	0x3e8699a6	0.262891
190	0xbe0be624	-0.1366201
191	0x3fcddcaa	1.6082966
192	0x3f6d7323	0.9275381
193	0xbf5e0f3c	-0.86741996
194	0x3f3b556d	0.73177224
195	0x3f361eee	0.71140945
196	0xbf17a86b	-0.5924136
197	0x3f071e47	0.52780575
198	0xbff443a9	-1.9083148
199	0x3e2ce0f5	0.1688269
200	0x3f1c2463	0.6099302
201	0x3de25132	0.11050643
202	0xbf28a94a	-0.65883315
203	0xbf4d6809	-0.8023687
204	0xbe9df56f	-0.30851313
205	0xbf6dc3a1	-0.9287663
206	0xbef25cf9	-0.47336558
207	0x3d1c3e54	0.03814538
208	0x3f41aa3a	0.7565037
209	0xbeacdadd	-0.3376073
210	0x3ea376d8	0.31926608
211	0x3ea94eca	0.33067924
212	0x3f58bb24	0.84660554
213	0xbfb3d7c8	-1.4050226
214	0xbf4a5a85	-0.7904437
215	0x3d859164	0.06521872
216	0xbde774b7	-0.113015585
217	0xbd3e864d	-0.046514798
218	0x3f36dbdb	0.7142922
219	0xbda52e26	-0.08065443
220	0x3f00754b	0.50178975
221	0xbf053462	-0.52033055
222	0xbdeaf086	-0.114716575
223	0x3e9926cc	0.29912412
224	0xbf28c247	-0.65921444
225	0xbdd042c8	-0.101689875
226	0x3f598265	0.8496459
227	0xbefff1d2	-0.49989182
228	0x3de681c6	0.11255221
229	0x3dc142a5	0.094365396
230	0x3e11e88e	0.14248869
231	0x3f63717c	0.8884504
232	0x3f029db6	0.510219
233	0x3ea7d780	0.327816
234	0x3f6c9f68	0.92430735
235	0x3de10bdc	0.1098859
236	0x3e058707	0.1303979
237	0xbea8d1cf	-0.3297257
238	0x3e90cb32	0.28280026
239	0x3f9e1a10	1.2351704
240	0x3eea19b7	0.45722744
241	0xbf16471c	-0.58702254
242	0x3f883391	1.0640737
243	0x3eff3ffe	0.4985351
244	0x3e276c8c	0.16350001
245	0xbe51fbe1	-0.2050624
246	0x3c720c8f	0.014773502
247	0x3f923a34	1.1424012
248	0xbd40d5ad	-0.047078777
249	0x3f2ff13e	0.6872748
250	0xbe7d482a	-0.2473456
251	0x3f949042	1.1606524
252	0x3c381156	0.011234602
253	0x3eb2fc88	0.3495829
254	0x3f3e91d7	0.74441284
255	0x3ef22c17	0.47299263

depthwise_15 f4 [1, 3, 3, 96]
0	0xbf06fec0	-0.5273247
1	0xbeb1e8b8	-0.34747863
2	0x3e9488eb	0.2901071
3	0xbb1407b6	-0.0022587604
4	0x3e8a3f5b	0.2700146
5	0xbf2eed6e	-0.6833104
6	0x3f4dec87	0.8043904
7	0x3f3c083a	0.7345005
8	0xbf0dbf2c	-0.5536983
9	0xbf200fd7	-0.6252417
10	0x3ef2ae31	0.47398522
11	0xbf5135c8	-0.8172269
12	0x3ef4162d	0.4767317
13	0x3f2acd78	0.6671977
14	0xbf1cd54f	-0.61262983
15	0x3ee4e05c	0.44702423
16	0xbea22aff	-0.31673428
17	0x3efaadf5	0.48960844
18	0xbdcd54a9	-0.10025913
19	0xbe1de0ec	-0.15417832
20	0x3f006086	0.50147283
21	0x3eb91cd8	0.3615482
22	0xbea22459	-0.31668356
23	0x3eb70ce3	0.3575202
24	0xbf756124	-0.9585135
25	0x3eb282cb	0.34865412
26	0xbf4f1934	-0.8089783
27	0xbf0e26ce	-0.5552796
28	0xbea5567e	-0.3229255
29	0x3ed9284b	0.42413554
30	0x3eed73d0	0.4637742
31	0xbeb8e3fc	-0.36111438
32	0x3e7af9d2	0.24509361
33	0xbf821f7c	-1.0165858
34	0xbef4ebcb	-0.47836146
35	0x3eddee93	0.4334608
36	0xbe50aa82	-0.20377544
37	0x3e7d959e	0.24764106
38	0x3ede0100	0.43360138
39	0x3ef53136	0.47889107
40	0xbf863c70	-1.0487194
41	0x3ecaaa4b	0.39583048
42	0xbed772b6	-0.42079705
43	0x3ed3432a	0.4126218
44	0x3f12cb5e	0.57341564
45	0x3ec34649	0.3813956
46	0x3f07fca9	0.53119904
47	0x3f1a9ecb	0.6039855
48	0x3dfa8aea	0.12233527
49	0x3ec8002d	0.39062634
50	0x3e7fab87	0.24967776
51	0xbea56207	-0.3230135
52	0xbe782ebd	-0.24236579
53	0x3ef4b6bf	0.47795674
54	0xbe5a4327	-0.21314679
55	0xbe8ef119	-0.27918318
56	0xbf1638a6	-0.5868019
57	0x3ecaae27	0.39585993
58	0x3f135628	0.5755334
59	0x3e4a3c20	0.19749498
60	0x3e97ba70	0.29634428
61	0xbe8d29d3	-0.27570972
62	0x3f2b0232	0.66800225
63	0xbebf46fa	-0.37358838
64	0xbfc90af5	-1.5706469
65	0xbf1049bc	-0.5636251
66	0x3e9e146a	0.3087495
67	0x3cbf7044	0.023368962
68	0xbe88bd35	-0.26706854
69	0xbe9b9369	-0.30385903
70	0x3dec6326	0.115423486
71	0xbea7b98e	-0.32758754
72	0x3ef9c5ad	0.48783627
73	0xbf1dde3b	-0.6166722
74	0xbeabed56	-0.3357951
75	0x3e8d4822	0.27594095
76	0xbe773124	-0.2413984
77	0x3e3ebd7a	0.18626967
78	0xbf0525c8	-0.52010775
79	0x3f001eaf	0.5004682
80	0x3f125521	0.57161146
81	0xbe70e97b	-0.23526566
82	0xbf029157	-0.5100302
83	0xbe9fbe67	-0.31199953
84	0xbe8a5e36	-0.27025002
85	0x3ec49c4c	0.38400495
86	0x3ed486aa	0.4150899
87	0x3f0ceb09	0.55046135
88	0x3ea136b9	0.31487063
89	0x3f2ebc1e	0.68255794
90	0x3ee4c6e4	0.44682992
91	0xbf584a7d	-0.8448866
92	0xbe95b764	-0.29241478
93	0xbe9383e4	-0.28811562
94	0x3e89745c	0.26846588
95	0x3f41dd42	0.7572824
96	0xbfa585e5	-1.2931486
97	0xbf798db3	-0.9748184
98	0x3f28fbe9	0.66009384
99	0x3cad1ffa	0.021133412
100	0x3f321c48	0.69574404
101	0xbf906e5e	-1.1283681
102	0x3fb21a88	1.3914347
103	0x3fe29655	1.7702128
104	0xbf75637e	-0.9585494
105	0xbf734a0b	-0.95034856
106	0x3f70ee0e	0.9411324
107	0xbff8a3e3	-1.9425014
108	0x3f83adea	1.0287449
109	0x3fb4c5a4	1.4122815
110	0xbfd0a6f6	-1.6300952
111	0x3f5b4eea	0.8566729
112	0xbf3096c8	-0.68980074
113	0x3f9e438b	1.2364362
114	0xbf5803fd	-0.84381086
115	0xbec75d89	-0.3893855
116	0x3f2acfc4	0.66723275
117	0x3f3e1ea6	0.74265516
118	0xbf519931	-0.81874377
119	0x3f475ef5	0.7787927
120	0xbff341e8	-1.9004488
121	0x3f5edefe	0.8705901
122	0xbfaadc55	-1.334849
123	0xbf8851da	-1.0649979
124	0xbf74dc09	-0.95648247
125	0x3f2c1633	0.67221373
126	0x3f953af2	1.1658614
127	0xbf1c2446	-0.6099285
128	0x3f33f0e9	0.70289475
129	0xbf0205ea	-0.50790274
130	0xbf67e0a2	-0.9057714
131	0x3fb00df2	1.3754256
132	0xbf0ddc9a	-0.55414736
133	0x3f446e07	0.7673039
134	0x3f80e48e	1.0069749
135	0x3f64fbd6	0.8944677
136	0xc00c038d	-2.1877167
137	0x3f98a52a	1.1925404
138	0xbf37365b	-0.71567315
139	0x3fb08227	1.3789719
140	0x3f5a1ae9	0.8519731
141	0x3fffe329	1.9991199
142	0x3f27b107	0.655045
143	0x3fbaecb8	1.4603491
144	0x3e69742b	0.22798221
145	0x3f396ae6	0.7242874
146	0x3f13206a	0.57471335
147	0xbf906c4b	-1.1283048
148	0xbf0ede99	-0.5580841
149	0x3f5dbf32	0.86619866
150	0xbf115282	-0.5676652
151	0xbf63f469	-0.89044815
152	0xbf5a0bf9	-0.8517452
153	0x3f80eebf	1.007286
154	0x3f6a40d3	0.91505164
155	0x3f468726	0.7754997
156	0x3f33ac99	0.7018524
157	0xbf10bf57	-0.5654196
158	0x3f81d500	1.0143127
159	0xbf355b18	-0.70842123
160	0xc04d2e74	-3.2059603
161	0xbfb5e44d	-1.4210297
162	0x3ef911bb	0.4864634
163	0x3e3c7c02	0.1840668
164	0xbf0dacb4	-0.5534165
165	0xbf08f1a5	-0.5349372
166	0x3f2aacd5	0.6666997
167	0xbf1a2d69	-0.6022554
168	0x3fc6f025	1.5542036
169	0xbfbdf770	-1.4841137
170	0xbf715a63	-0.94278544
171	0x3f9d9f12	1.231417
172	0xbf3a9344	-0.7288096
173	0x3eeeb100	0.46619415
174	0xbf117726	-0.5682243
175	0x3f946ffd	1.1596676
176	0x3f95df7f	1.170883
177	0xbf68e305	-0.90971404
178	0xbf65e517	-0.8980269
179	0xbf4efd45	-0.8085521
180	0xbf86a0a0	-1.0517769
181	0x3f084ff6	0.5324701
182	0x3fea9bfb	1.8328851
183	0x3f8f8e0b	1.1215223
184	0x3f37faf5	0.71867305
185	0x3fbee841	1.4914628
186	0x3f8559ae	1.0417993
187	0xbfbecfc7	-1.4907159
188	0xbf5e2498	-0.8677459
189	0xbf3e12d4	-0.7424748
190	0x3f3c5fc0	0.735836
191	0x3f86d2af	1.0533046
192	0xbf4fef49	-0.81224495
193	0xbf0af70f	-0.5428323
194	0x3eff5dca	0.49876243
195	0x3c3019bc	0.010748323
196	0x3f102ab0	0.56315136
197	0xbf68cf42	-0.9094125
198	0x3f77b56d	0.9676121
199	0x3f589037	0.84595054
200	0xbf0f8580	-0.5606308
201	0xbf1929a3	-0.5982916
202	0x3f34fefb	0.7070157
203	0xbfdeb225	-1.7398115
204	0x3f4f7b78	0.81047773
205	0x3ef66be5	0.48129192
206	0xbf9d1556	-1.2272136
207	0x3f53bc28	0.8270898
208	0xbeff61c3	-0.49879274
209	0x3f8785c8	1.0587702
210	0xbf302f3e	-0.68822086
211	0xbece50c8	-0.40296006
212	0x3f31176e	0.69176376
213	0x3f388a44	0.72085977
214	0xbf1c4ffe	-0.6105956
215	0x3f2a5e4e	0.6655015
216	0xbfadf1af	-1.3589381
217	0x3f066814	0.5250256
218	0xbf8c29c6	-1.0950248
219	0xbf4a2f5e	-0.78978527
220	0xbf507d7b	-0.8144147
221	0x3f0930ec	0.53590274
222	0x3f47d97e	0.7806624
223	0xbee00abe	-0.43758196
224	0x3f12454f	0.57137007
225	0x3f279038	0.65454435
226	0xbf22fb60	-0.6366482
227	0x3f9b332a	1.2124989
228	0xbf08e573	-0.5347511
229	0x3f14af5e	0.5808009
230	0x3f505b92	0.81389725
231	0x3f4fb70b	0.81138676
232	0xbfd36be1	-1.6517297
233	0x3f7d31b3	0.9890396
234	0xbf06346a	-0.5242373
235	0x3faaec0a	1.3353283
236	0x3f5fe806	0.87463415
237	0x4007b4c6	2.1204085
238	0x3eebdb50	0.4606576
239	0x3fa64e73	1.2992691
240	0x3e1d4183	0.15357022
241	0x3f177d9d	0.59176046
242	0x3f149546	0.58040273
243	0xbf3affeb	-0.7304675
244	0xbed360fe	-0.41284937
245	0x3f360dc6	0.71114767
246	0xbf08d1a7	-0.53444904
247	0xbf122c73	-0.57099074
248	0xbf34312f	-0.7038755
249	0x3f6d28ff	0.9264068
250	0x3f34d905	0.70643646
251	0x3f083b86	0.53215826
252	0x3edb35ad	0.4281439
253	0xbedd110d	-0.4317707
254	0x3f02c0e2	0.51075566
255	0xbf1f5254	-0.62235

depthwise_14 f4 [1, 3, 3, 96]
0	0x3e29018f	0.16504501
1	0xbd6baa12	-0.05753524
2	0x3cc68d19	0.024237202
3	0x3b2d3101	0.0026426914
4	0x3da8abca	0.08235891
5	0x3d705733	0.05867691
6	0xbe068a94	-0.13138801
7	0x3db9c549	0.09070832
8	0xbe3469a1	-0.17618419
9	0xbe1e6776	-0.15469155
10	0x3e064921	0.13113834
11	0xbdaee740	-0.08540201
12	0xbdd207e9	-0.10255415
13	0x3eda9396	0.42690724
14	0x3ddf83d5	0.10913817
15	0xbda4db05	-0.08049587
16	0x3e94e772	0.2908283
17	0xbe604552	-0.21901444
18	0x3d4b23e9	0.049594793
19	0x3c87a858	0.016559765
20	0x3e41379e	0.18868873
21	0xbd1490f8	-0.036271065
22	0xbe7a0717	-0.24416767
23	0x3da3d24e	0.07999097
24	0x3ea0b57d	0.31388465
25	0x3dcc0bfe	0.09963225
26	0x3eb1b50e	0.34708446
27	0x3e27eed1	0.16399695
28	0xbdad1cbf	-0.084527485
29	0xbe510670	-0.20412612
30	0x3dac4bca	0.08412893
31	0x3d84af08	0.06478697
32	0x3ddec81f	0.10878014
33	0xbe51a435	-0.20472796
34	0x3e6db0a8	0.2321192
35	0x3da5c7f9	0.080947824
36	0xbda76ace	-0.08174668
37	0xbedc5a30	-0.43037558
38	0xbe4f5106	-0.20245752
39	0xbe2f8e5b	-0.17144148
40	0x3e2a8db5	0.1665562
41	0xbc4a18c6	-0.012335008
42	0xbe023c12	-0.12718228
43	0x3d158c15	0.036510546
44	0x3e06b8a6	0.13156375
45	0x3dab808f	0.0837413
46	0x3e22f7f8	0.15914905
47	0xbe83deba	-0.25755864
48	0xbde52ef6	-0.11190598
49	0xbe3457ab	-0.17611568
50	0xbe292734	-0.16518861
51	0x3d38ac5a	0.045086242
52	0xbe3ce98c	-0.18448466
53	0xbcda3826	-0.026638102
54	0x3ec3e639	0.38261583
55	0x3d19ff11	0.037596766
56	0xbda75a7d	-0.08171556
57	0x3e30ed89	0.17278112
58	0xbd652fe9	-0.055953894
59	0x3e5c722f	0.21527933
60	0xbe87973c	-0.2648257
61	0xbd70fa3a	-0.058832385
62	0x3e283efe	0.1643028
63	0xbd86cca7	-0.06582003
64	0x3e53f2fd	0.20698161
65	0xbe61372d	-0.21993704
66	0x3ed7a2be	0.4211635
67	0x3dca5def	0.09881198
68	0xbdf52e2f	-0.119716994
69	0xbe7587c2	-0.23977569
70	0x3dac5302	0.0841427
71	0x3e0bc516	0.13649401
72	0x3d8b74f8	0.068094194
73	0x3e0e9e51	0.1392758
74	0x3e8ba520	0.27274418
75	0x3cbe2487	0.023210777
76	0xbe4b8b14	-0.19877273
77	0x3e119725	0.14217813
78	0x3bad979f	0.0052976157
79	0x3e84b661	0.25920394
80	0xbd91e8f1	-0.07124508
81	0xbe1d610c	-0.15369052
82	0xbd951523	-0.07279422
83	0x3e9698a2	0.29413325
84	0x3e5779fa	0.21042624
85	0x3ee7fbf4	0.45309412
86	0x3ecc7eab	0.3994039
87	0xbdffdf9c	-0.12493822
88	0x3e838285	0.25685516
89	0x3dc2f266	0.0951889
90	0xbe078483	-0.13234143
91	0xbdb46642	-0.08808567
92	0xbe7d9ddc	-0.2476725
93	0xbe99c656	-0.3003413
94	0xbe064386	-0.13111696
95	0xbd956110	-0.07293904
96	0x3e8774d9	0.26456335
97	0xbdebd507	-0.11515241
98	0x3e21f1bb	0.15814869
99	0xbe16797a	-0.14694777
100	0x3e8e4db3	0.27793655
101	0x3e65f669	0.2245728
102	0xbe92c628	-0.28666806
103	0x3e9053af	0.28188846
104	0xbe4fa3b1	-0.20277287
105	0xbe81a3e1	-0.25320342
106	0x3e87c4b8	0.26517272
107	0xbe6b9fde	-0.23010203
108	0x3cd0e9f2	0.025502179
109	0x3f0ffcb7	0.5624499
110	0x3e896e10	0.26841784
111	0xbdb4acdd	-0.088220336
112	0x3eb1da65	0.34736934
113	0xbee9cf1a	-0.45665818
114	0x3dfbfe73	0.12304392
115	0x3e0d1e79	0.13781156
116	0x3ea17968	0.31537938
117	0x3df1602f	0.11785924
118	0xbdc7b6f7	-0.09751695
119	0x3e211c56	0.15733466
120	0x3ec28da8	0.379987
121	0x3e886665	0.2664062
122	0x3ebe4acf	0.3716645
123	0x3ebfc5d7	0.37455627
124	0xbec7ef70	-0.39049864
125	0xbf1b6bac	-0.6071117
126	0x3e05344c	0.13008231
127	0x3e885ac8	0.2663176
128	0x3e0bd95a	0.13657132
129	0xbf14cffc	-0.5812986
130	0x3ea08c84	0.31357205
131	0x3e3653f2	0.1780546
132	0xbe91f115	-0.28504243
133	0xbf1d1b01	-0.6136933
134	0xbea6b8c9	-0.32562855
135	0xbec13386	-0.37734622
136	0x3e67bb40	0.22630024
137	0xbe75df48	-0.24010956
138	0xbe7872c9	-0.24262537
139	0x3dd20486	0.10254769
140	0x3e70f5cf	0.23531269
141	0x3e9daf9f	0.3079805
142	0x3eb39b11	0.35079244
143	0xbea12e85	-0.31480804
144	0xbef20c44	-0.47274983
145	0xbe4dd7df	-0.2010188
146	0xbed13295	-0.40858904
147	0x3eaf0e6e	0.34190696
148	0xbe5cf222	-0.21576741
149	0xbca4c413	-0.020113027
150	0x3f11c76b	0.5694491
151	0x3d3d08ca	0.04615096
152	0xbe9cc0fe	-0.3061599
153	0x3e892cb0	0.26791906
154	0xbe39101e	-0.18072554
155	0x3ecef385	0.40420166
156	0xbe926a8d	-0.28596917
157	0xbd2d23d9	-0.042270515
158	0x3e94888d	0.2901043
159	0x3dcf320f	0.1011697
160	0x3eea1fd2	0.45727402
161	0xbee0a319	-0.43874434
162	0x3f565390	0.83721256
163	0x3e6d2749	0.23159517
164	0xbebe8dff	-0.3721771
165	0xbec9e9f6	-0.3943631
166	0xbdca0108	-0.09863478
167	0x3ed9e53d	0.42557707
168	0x3e22ae01	0.1588669
169	0x3ea762b7	0.326925
170	0x3eb5f7b2	0.3554054
171	0x3d9782e6	0.07398014
172	0xbe9d3c37	-0.30710003
173	0x3ee49aa9	0.44649246
174	0x3d9c529d	0.07632945
175	0x3f0b6b64	0.5446074
176	0xbe3885a6	-0.18019733
177	0xbe732715	-0.23745377
178	0xbe8b414d	-0.27198258
179	0x3ef7d2aa	0.4840291
180	0x3eca17b8	0.3947122
181	0x3edaba74	0.42720377
182	0x3f2c4b99	0.6730285
183	0xbdb27b21	-0.08714891
184	0x3e80e488	0.25174356
185	0x3de9f190	0.114230275
186	0xbe9f01fb	-0.31056198
187	0xbe8b6ab2	-0.2722984
188	0xbf32d5a9	-0.6985727
189	0xbf006b12	-0.50163376
190	0xbe84eecb	-0.25963435
191	0xbde76c87	-0.11299997
192	0x3e9044d3	0.2817751
193	0xbdd64502	-0.10462381
194	0x3e4fb8aa	0.20285287
195	0xbde6a248	-0.112614214
196	0x3e117546	0.14204893
197	0x3e5f2269	0.2179047
198	0xbe4c0f95	-0.19927819
199	0x3e72c087	0.23706256
200	0xbcf4fa14	-0.029904403
201	0xbe4c386c	-0.19943398
202	0x3e23c824	0.15994316
203	0xbe9c269a	-0.304982
204	0x3e1c8ad2	0.15287331
205	0x3f2b3fb9	0.6689411
206	0x3e5208e0	0.20511198
207	0xbc8edf4b	-0.017440459
208	0x3ea25d9d	0.31712046
209	0xbec35880	-0.38153458
210	0x3cf0e169	0.029404359
211	0x3e55d0f6	0.20880494
212	0x3e91e419	0.28494337
213	0x3e5a23af	0.21302675
214	0xbe4f1d6e	-0.2022607
215	0x3e035407	0.12825023
216	0x3ecad907	0.39618704
217	0x3e1e1cee	0.15440723
218	0x3f0ebcd3	0.5575687
219	0x3e78b901	0.24289323
220	0xbeaca6b7	-0.33720943
221	0xbeefd0d7	-0.4683902
222	0x3da636de	0.08115934
223	0x3e86f9c8	0.26362443
224	0x3da3d465	0.079994954
225	0xbee159f3	-0.44013938
226	0x3e907de6	0.28221053
227	0x3df8c902	0.12147714
228	0xbe5c62ce	-0.21522066
229	0xbf0d8ea8	-0.552958
230	0xbe7d5d5e	-0.24742648
231	0xbe3fda00	-0.18735504
232	0x3eac6562	0.336711
233	0xbeb1daf2	-0.34737355
234	0xbe440730	-0.19143367
235	0x3de8150f	0.113321416
236	0x3ddb3f9a	0.107054904
237	0x3e87cbff	0.26522824
238	0x3e93018d	0.2871212
239	0xbecb5610	-0.39714098
240	0xbeb55858	-0.35418963
241	0xbe3ceb74	-0.18449193
242	0xbeac0a89	-0.33601788
243	0x3e934977	0.28766987
244	0xbe560322	-0.20899633
245	0xbe0e5338	-0.13898933
246	0x3eecf338	0.4627931
247	0x3df3ccb0	0.119042754
248	0xbe734ff3	-0.23760967
249	0x3e93c43e	0.28860658
250	0xbe0a3c88	-0.13499653
251	0x3eb6efc6	0.35729808
252	0xbe7e94ae	-0.24861404
253	0xbbc0b5f7	-0.005881067
254	0x3e16e948	0.14737427
255	0x3e8420fa	0.2580641

depthwise_13 f4 [1, 3, 3, 48]
0	0xbd8de920	-0.06929231
1	0xbe6a180d	-0.22860737
2	0x3d263b2b	0.04058377
3	0x3d2064fe	0.039158814
4	0x3ef936dd	0.4867467
5	0x3ea1e73b	0.31621727
6	0x3bece5c7	0.00722954
7	0x3d987b0d	0.07445345
8	0x3ece53c8	0.40298295
9	0x3e11c19e	0.14234015
10	0x3cd8526b	0.026406487
11	0x3ea99ac2	0.33125883
12	0x3d770ea7	0.060316708
13	0xbf274c18	-0.65350485
14	0x3e2dfe0b	0.16991441
15	0xbf21e9b5	-0.63247234
16	0xbee9b82d	-0.45648327
17	0x3e882085	0.2658731
18	0x3f4950b0	0.78638744
19	0x3e6aa897	0.22915874
20	0xbfc8724f	-1.5659884
21	0x3caefd98	0.021361157
22	0xbedc38ac	-0.43011987
23	0xbb9cc7e4	-0.004784571
24	0xbdeea614	-0.11652771
25	0xbead2eb1	-0.33824685
26	0x3e13e3a3	0.14442305
27	0x3e823217	0.2542884
28	0x3f1eeb44	0.62077737
29	0xbe4e5340	-0.20148945
30	0xbe252540	-0.16127491
31	0xbf39ca43	-0.7257425
32	0xbec7a161	-0.3899031
33	0x3e757fd9	0.23974551
34	0xbe233a26	-0.1594015
35	0xbf0c2ec2	-0.54758847
36	0xbe9e1aa0	-0.30879688
37	0x3dbe8883	0.09303381
38	0xbcd7bb4e	-0.026334431
39	0x3e66c7f0	0.22537208
40	0x3e339a76	0.17539391
41	0xbedd2192	-0.43189675
42	0x3d530d43	0.05152632
43	0xbdb65d8e	-0.08904563
44	0x3eb663d6	0.35623044
45	0x3c37defe	0.011222599
46	0xbea9c821	-0.331605
47	0xbf2d6c6a	-0.6774355
48	0xbf8fabac	-1.1224265
49	0xbebf1fa3	-0.37328824
50	0xbe7fee1a	-0.24993172
51	0x3ea0c014	0.31396544
52	0x3f8f1d0e	1.1180742
53	0xc01f8600	-2.4925537
54	0x3e5fdab6	0.21860775
55	0x3ed33a1c	0.4125527
56	0xbf959f86	-1.1689308
57	0x3f15f5bd	0.5857809
58	0x3ede83b9	0.4345987
59	0x3f40ad2f	0.7526426
60	0x401b4378	2.425993
61	0xbfdd39ea	-1.7283299
62	0x3e142645	0.14467724
63	0x3f2f77fa	0.68542445
64	0xbe12e539	-0.14345254
65	0xbe304f69	-0.17217793
66	0x3e7c96c2	0.24666885
67	0x3fa6bda3	1.3026623
68	0x3f3b7d43	0.7323801
69	0xbf471427	-0.77765125
70	0xbe50dd89	-0.20397009
71	0xbf111034	-0.5666535
72	0x3e665490	0.22493196
73	0xbd5f6c1f	-0.05454647
74	0xbe6c0aa5	-0.23050936
75	0x3ff0ad4e	1.8802888
76	0x3f87588e	1.05739
77	0xbf6d6ad4	-0.9274113
78	0x3f1cd0fb	0.6125638
79	0x3e94c770	0.2905841
80	0xbf4c28be	-0.7974967
81	0x3f4ae303	0.7925264
82	0x3ed189f2	0.40925556
83	0x3ec275c1	0.37980464
84	0xbf9271eb	-1.1441015
85	0xbf087202	-0.5329896
86	0x3e45dc3c	0.19322294
87	0x3f6b675d	0.91954595
88	0x3e328d80	0.1743679
89	0xbf0f9063	-0.5607969
90	0x3eedd672	0.4645267
91	0x3eda1ccb	0.42600092
92	0x3fd0221f	1.6260413
93	0x3ee5e9bd	0.4490489
94	0xbe7e62ab	-0.24842326
95	0x406a11ae	3.657329
96	0xbe2c6f1e	-0.16839263
97	0xbecc3179	-0.39881495
98	0xbda75f07	-0.08172422
99	0xbe5f9127	-0.21832715
100	0x3efd447a	0.49466306
101	0x3e96e97e	0.29475015
102	0xbc7a1e35	-0.015265991
103	0x3dcd7f47	0.10034042
104	0x3ea5668e	0.32304806
105	0xbef7c7cf	-0.4839463
106	0xbd23e03e	-0.040008776
107	0x3ef9a8ef	0.487617
108	0xbca8f25a	-0.020623375
109	0xbf191f51	-0.5981341
110	0x3e290052	0.16504028
111	0x3f09fc81	0.53900915
112	0x3e9b0dfe	0.30284113
113	0x3e30f61f	0.17281388
114	0xbed5ac30	-0.4173293
115	0x3da77d0e	0.08178149
116	0x3f6584a4	0.8965552
117	0xbedd1d09	-0.43186215
118	0xbf1bdada	-0.60880816
119	0xbe049934	-0.12949067
120	0xbd84c61b	-0.06483098
121	0xbefd9304	-0.49526227
122	0x3b718b7d	0.0036856823
123	0x3e87aa82	0.26497275
124	0xbfd1f3fb	-1.6402582
125	0xbe4dd164	-0.20099407
126	0xbdba056f	-0.090830676
127	0xbf468274	-0.77542806
128	0xbf1103f1	-0.5664664
129	0x3daeb81c	0.0853121
130	0xbc819940	-0.015820146
131	0x3df2c5dd	0.11854146
132	0xbf083456	-0.5320486
133	0xbf17c6dc	-0.5928781
134	0xbddcd594	-0.10782924
135	0x3e7f8571	0.24953248
136	0x3e38dae2	0.18052247
137	0x3de62052	0.11236633
138	0x3c6249bb	0.013811524
139	0xbac3a38c	-0.001492606
140	0x3eb10cbf	0.34580037
141	0x3cff9802	0.031200413
142	0xbca70833	-0.020389652
143	0xbf41ed8c	-0.7575309
144	0xbd8b1f49	-0.067930765
145	0xbe7b473a	-0.2453889
146	0x3e269c21	0.16270496
147	0x3e82aa3e	0.2552051
148	0xbd861072	-0.065461054
149	0x398c7b39	0.0002679469
150	0xbd744920	-0.05964005
151	0xbefdbef9	-0.49559763
152	0x3f7c5d84	0.98580194
153	0x3fb5f896	1.4216487
154	0x3bf4a480	0.007465899
155	0xbe090ba1	-0.13383342
156	0x3dcc857d	0.09986398
157	0x3e48b62d	0.19600745
158	0x3ecfca8a	0.40584213
159	0xbef6b0fa	-0.48181897
160	0xbf713455	-0.9422048
161	0x3f4e0320	0.8047352
162	0x3f18484d	0.5948532
163	0xbe176735	-0.14785464
164	0x3e76863c	0.24074644
165	0x3f926712	1.1437705
166	0xbe2278de	-0.1586642
167	0xbc6fffe6	-0.014648413
168	0x3e617f37	0.22021185
169	0xbea93bdc	-0.33053482
170	0x3f2611bf	0.6487083
171	0x3d96f731	0.07371367
172	0xbed64a1d	-0.4185342
173	0xbe5d2fc8	-0.21600258
174	0x3de125f8	0.1099357
175	0xbbc61c1e	-0.0060458323
176	0xbe5886ae	-0.21145126
177	0x3bece11f	0.007228985
178	0xbef32ea9	-0.47496536
179	0xbfc57e41	-1.5429155
180	0xbd812adf	-0.06307005
181	0x3eade517	0.33963844
182	0xbf4331eb	-0.76248044
183	0x3e6dd72f	0.23226617
184	0x3e5d53eb	0.21614043
185	0xbf676430	-0.9038725
186	0x3e3ed91d	0.1863751
187	0xbe3bdf4e	-0.18346903
188	0x3eb24ab3	0.34822616
189	0xbdfff041	-0.12496997
190	0xbf2cf61a	-0.6756302
191	0xbe2b9bab	-0.16758601
192	0xbe98ea43	-0.29866228
193	0xbf9c5987	-1.2214822
194	0x40182948	2.3775196
195	0x3e6de158	0.23230493
196	0x3f68c418	0.90924215
197	0xbde2b30e	-0.11069308
198	0xbd40ee65	-0.04710235
199	0x3f4e7932	0.8065368
200	0xbf8d6f7d	-1.1049649
201	0x3cdd906d	0.027046407
202	0xbbfff1f2	-0.0078108246
203	0x3ece5755	0.40301004
204	0xbf662b37	-0.8990969
205	0xbeed8c54	-0.46396124
206	0x3ff3b877	1.9040669
207	0xbebe0ef0	-0.3712077
208	0x3eb7e646	0.35917872
209	0xbffb8c85	-1.9652258
210	0xbe5ef026	-0.21771297
211	0xbf20c16f	-0.62795156
212	0x3fce159b	1.6100343
213	0x3f233630	0.6375456
214	0xbf05bde1	-0.5224286
215	0xbf435272	-0.76297677
216	0x3fa265d5	1.2687327
217	0x408a583e	4.3232718
218	0x3f24c814	0.64367795
219	0xbd550338	-0.052005023
220	0x3fb8a716	1.442599
221	0xbf4b7b26	-0.79484785
222	0x3ffd14a7	1.9771928
223	0x3f7e82ed	0.99418527
224	0x400d3f90	2.2070045
225	0x3f3d405f	0.7392635
226	0x405efcec	3.4841871
227	0x3ea23ec7	0.3168852
228	0xbf2f5a1d	-0.68496877
229	0xbcb53ac5	-0.02212275
230	0x3f807850	1.0036716
231	0xbe100d7e	-0.14067647
232	0xbcf2ee20	-0.029654562
233	0xbe89981b	-0.2687386
234	0x3f95307b	1.165542
235	0xc021e2c1	-2.529465
236	0xbf818401	-1.0118409
237	0x3d7c4729	0.0615913
238	0x3f7ced53	0.9879963
239	0xbfa1112c	-1.2583365
240	0xbe18b771	-0.14913727
241	0xbeb07f7e	-0.3447227
242	0x3ef0b74b	0.4701484
243	0x3ea950cf	0.33069465
244	0x3c036e1d	0.0080218585
245	0xbded5bac	-0.11589751
246	0x3ce8937a	0.028390635
247	0xbeaf7dbb	-0.34275612
248	0x3f760afa	0.961105
249	0xbfce3c9b	-1.6112245
250	0xbd8acafe	-0.06776999
251	0xbdfd9a07	-0.12382894
252	0xbcc70f93	-0.024299419
253	0x3d358cd2	0.04432375
254	0x3ef2ee0f	0.4744725
255	0x3f4e052b	0.80476636
