example/onnx-runtime/FastestDet.onnx (onnx, 998169 bytes, 140 tensors)

onnx::Conv_760 f4 [24, 3, 3, 3]
-0.0857412 -0.0523675 -0.08361683 -0.0707836 -0.029824285 -0.050524205 -0.10006997 -0.078753114
-0.090466894 -0.07565026 -0.06940161 -0.06787476 -0.089889355 -0.08015135 -0.07003336 -0.11680911
-0.09762201 -0.10098853 0.16166861 0.1187563 0.146518 0.15682721 0.10933275 0.109212734
0.2041896 0.16446197 0.17517067 0.2756313 -0.12181385 -0.11987721 0.009694091 -0.47591963
0.065972134 0.003122104 -0.04911263 0.28154126 0.7815296 -0.30615214 -0.33630708 -0.11399754
-1.143712 0.003959002 -0.32931408 -0.16645359 0.83382404 0.49627188 -0.071524486 -0.058724295
0.051925883 -0.7932356 -0.07115491 -0.23039603 -0.14985664 0.544552 0.19635299 0.21518181
0.19611163 0.11685405 0.03995956 0.14059417 0.21708944 0.13618334 0.23282088 -0.27994385
-0.29784286 -0.2728576 -0.32893717 -0.413569 -0.32082042 -0.24967833 -0.34199154 -0.2970747
0.078855656 0.14285137 0.08230941 0.20408556 0.3571744 0.18041082 0.04282477 0.15075156
0.06913346 -0.21173476 -0.23668623 -0.18822096 -0.27120787 -0.28849643 -0.19813651 -0.15831904
-0.15815526 -0.07069861 0.37979725 0.35967618 0.28429472 0.36084294 0.35519922 0.25860724
0.29866487 0.27217472 0.20387319 -0.162695 -0.13449788 -0.08638412 -0.10820489 -0.08207232
-0.08256906 -0.13170108 -0.13020115 -0.12685576 0.25573498 -0.2371454 -0.07874829 0.3568466
-0.019514771 -0.30301836 0.15263583 0.039301235 -0.1517887 0.83022904 -0.5507717 -0.5345906
1.0303844 -0.12141066 -0.85749245 0.66288334 0.108684465 -0.6231958 0.6820337 -0.509732
-0.44992033 0.8066083 -0.12465048 -0.67543167 0.63908005 0.14904724 -0.55600035 0.023348195
0.08022763 -0.02300067 0.06066411 0.14726263 0.058559522 0.0209 0.08371406 0.03725792
0.053526793 0.13624658 0.048987206 0.08929982 0.16874124 0.08105657 0.02666591 0.08381728
0.013039834 0.056699306 0.14035088 0.07990488 0.07891845 0.14880237 0.09422676 0.02722903
0.10466103 0.052967895 -0.25196803 0.13875851 0.35080814 -0.49529582 -0.0111826565 0.54153407
-0.35335717 -0.34248102 0.42335665 -0.67339724 0.184595 0.79766923 -0.9040268 -0.14124277
1.0683744 -0.5824189 -0.6310468 0.7896994 -0.29457048 0.0635617 0.39787987 -0.4540639
-0.14182958 0.5860226 -0.18592802 -0.4866825 0.47698304 0.17021869 0.1843977 0.03809237
0.09564013 0.056375295 0.013631357 -0.0410061 -0.31407526 -0.047441863 -0.15643671 0.1231725
-0.1205998 0.09224981 0.248861 0.059266303 0.3735015 0.12907268 0.26849553 -0.018941753
-0.012613331 -0.12738861 0.052789394 0.08862504 0.006241062 0.33249742 0.26535478 0.28762636
-0.065894164 -0.25552824 -0.11872975 0.052118704 -0.08084404 -0.29793182 0.13465136 0.37262055
0.23747683 -0.34715387 -0.8254678 -0.43405926 0.23677963 -0.2332907 -0.6876393 0.5784921
1.02561 0.6390784 -0.41172543 -0.8530296 -0.4971384 0.23370615 -0.2693006 -0.68682736
0.7692844 1.0366114 0.7210662 -0.47888225 -0.041518513 0.13313511 0.11230663 0.5858762
0.107844755 0.15226072 0.03518201 -0.40587088 -1.1374856 0.013944263 0.3581815 0.13701484
00000000: 1599 afbd 4e7f 56bd 4d3f abbd fef6 90bd
00000010: 0f52 f4bc 78f2 4ebd 7cf1 ccbd 5049 a1bd
00000020: b546 b9bd 86ee 9abd 6e22 8ebd ec01 8bbd
00000030: e917 b8bd 6426 a4bd a66d 8fbd 9d39 efbd
00000040: 0cee c7bd 13d3 cebd 758c 253e 8136 f33d
00000050: d108 163e 5097 203e d9e9 df3d edaa df3d
00000060: 1417 513e b868 283e f15f 333e 8c1f 8d3e
00000070: 8a79 f9bd 2f82 f5bd f7d3 1e3c bdab f3be
00000080: 661c 873d 379c 4c3b 532a 49bd 2d26 903e
00000090: 5312 483f f9bf 9cbe 7130 acbe 8b77 e9bd
000000a0: 2865 92bf 84ba 813b db9b a8be cf72 2abe
000000b0: 7e75 553f 5917 fe3e 6e7b 92bd e388 70bd
000000c0: 3cb0 543d 7d11 4bbf aab9 91bd f0ec 6bbe
000000d0: 0574 19be c367 0b3f c210 493e 9f58 5c3e
000000e0: 7dd1 483e 2d51 ef3d a3ac 233d ebf7 0f3e
000000f0: b24c 5e3e a573 0b3e 9968 6e3e cd54 8fbe
00000100: dc7e 98be feb3 8bbe 746a a8be 51bf d3be
00000110: 9342 a4be adab 7fbe 8419 afbe 2d1a 98be
00000120: 137f a13d a147 123e d691 a83d cefb 503e
00000130: 90df b63e 9dbd 383e 0769 2f3d 9e5e 1a3e
00000140: d895 8d3d ffd0 58be e05d 72be ffbc 40be
00000150: c2db 8abe ceb5 93be 4ce4 4abe 631e 22be
00000160: 74f3 21be 6fca 90bd c974 c23e 7a27 b83e
00000170: 148f 913e 68c0 b83e acdc b53e 2b68 843e
00000180: 9aea 983e 7c5a 8b3e 22c4 503e 8599 26be
00000190: d0b9 09be 28ea b0bd 869a ddbd 8815 a8bd
000001a0: f819 a9bd a6dc 06be 7353 05be 7ae6 01be
000001b0: b2ef 823e 3ed6 72be c946 a1bd 99b4 b63e
000001c0: 71dd 9fbc 3925 9bbe 914c 1c3e 55fa 203d
000001d0: 7f6e 1bbe e489 543f 60ff 0cbf eeda 08bf
000001e0: a3e3 833f 27a6 f8bd a084 5bbf b9b2 293f
000001f0: f695 de3d c389 1fbf c399 2e3f cc7d 02bf
00000200: f55b e6be e27d 4e3f c048 ffbd 17e9 2cbf
00000210: c09a 233f d79f 183e 0a56 0ebf b744 bf3c
00000220: 624e a43d e76b bcbc ee7a 783d 04cc 163e
00000230: 1cdc 6f3d 7a36 ab3c 4772 ab3d c39b 183d
00000240: e93e 5b3d 3984 0b3e cfa6 483d d3e2 b63d
00000250: 81ca 2c3e fd00 a63d 7772 da3c 65a8 ab3d
00000260: 07a5 553c 883d 683d 24b8 0f3e 2ba5 a33d
00000270: ff9f a13d a65f 183e f6f9 c03d 6a0f df3c
00000280: 8658 d63d ddf4 583d f401 81be b616 0e3e
00000290: 209d b33e 6a97 fdbe 7637 37bc faa1 0a3f
000002a0: 3beb b4be ac59 afbe 34c2 d83e c363 2cbf
000002b0: 7906 3d3e 0d34 4c3f 4d6e 67bf f2a1 10be
000002c0: 7ec0 883f 6819 15bf 488c 21bf bd29 4a3f
000002d0: f1d1 96be a32c 823d e9b6 cb3e 107b e8be
000002e0: c63b 11be 9405 163f ea63 3ebe 732e f9be
000002f0: 1f37 f43e cf4d 2e3e c0d2 3c3e bf06 1c3d
00000300: f9de c33d c8e9 663d 0e56 5f3c 03f6 27bd
00000310: 79ce a0be 6652 42bd f230 20be dd41 fc3d
00000320: 07fd f6bd 78ed bc3d 6bd5 7e3e 39c1 723d
00000330: 973b bf3e a12b 043e 3f78 893e bc2b 9bbc
00000340: 25a8 4ebc 2972 02be b139 583d 0c81 b53d
00000350: d381 cc3b 1a3d aa3e 95dc 873e c343 933e
00000360: 85f3 86bd 99d4 82be 9528 f3bd 6c7a 553d
00000370: 8f91 a5bd 858a 98be 0ce2 093e 1fc8 be3e
00000380: 202d 733e 27be b1be dc51 53bf 043d debe
00000390: 5c76 723e c2e3 6ebe 2109 30bf 0f18 143f
000003a0: 3047 833f a49a 233f adcd d2be 2660 5abf
000003b0: ed88 febe aa50 6f3e c5e1 89be ebd3 2fbf
000003c0: d3ef 443f afaf 843f cb97 383f 0e30 f5be
000003d0: 510f 2abd 9254 083e 0501 e63d fcfb 153f
000003e0: b6dd dc3d 3cea 1b3e 031b 103d 4fce cfbe
000003f0: 2199 91bf 7a76 643c 9163 b73e 9e4d 0c3e

onnx::Conv_761 f4 [24]
0.6476725 1.1459342 0.56316465 0.4655726 0.06346744 0.11385441 0.12496497 -1.5580658
0.090914175 0.031142741 0.19508836 -0.00017155708 0.5397353 1.2462027 0.08965942 -0.00037114954
1.0611705 0.34182012 0.00821824 0.024908632 0.08083129 2.1020398 -0.011942282 0.15296748
00000000: ddcd 253f f9ad 923f 8f2b 103f 885f ee3e
00000010: 38fb 813d 802c e93d a2ed ff3d b36e c7bf
00000020: 3631 ba3d 101f ff3c 3ec5 473e 01e4 33b9
00000030: 182c 0a3f 9283 9f3f 5c9f b73d d996 c2b9
00000040: 6fd4 873f 0c03 af3e cca5 063c 300d cc3c
00000050: e08a a53d d287 0640 90a9 43bc 82a3 1c3e

onnx::Conv_763 f4 [24, 1, 3, 3]
-0.061715435 -0.065747075 0.13998635 -1.3936758 -0.3414444 1.290512 -1.3781636 -0.5709943
1.3861481 0.051771104 -0.00817368 0.023965014 0.1364395 0.0722673 -0.0073609953 0.17826694
0.0762563 -0.078816086 -0.10431799 0.023017585 -0.14010563 -0.24877396 0.13318716 0.643179
-0.4607256 0.23098935 1.6929115 0.042954586 0.08139308 -0.14424686 0.6719411 0.22464086
-0.23610519 1.1323032 0.41745794 -0.5448631 -0.000701776 0.023723366 -0.031417616 0.067459404
0.030302627 -0.04546 0.018643003 -0.09449997 -0.2821192 0.0116417715 -0.031933557 0.036457308
-0.6212579 -0.022675036 0.6128132 -0.84369516 -0.0072041117 0.808727 -0.0097500775 0.033099614
-0.031553097 0.04267643 0.014131483 -0.07329643 -0.020094337 -0.07080942 -0.24463546 -0.4222089
0.09869734 0.0684174 -0.8475367 0.4126359 1.1852722 -0.7731633 0.037690133 0.9018857
-0.007931643 -0.06671484 0.040433377 -0.0854062 -0.067958936 0.11514978 -0.040157024 0.033499733
0.32083082 -0.009364117 -0.1470901 -0.028243937 -0.0063948673 -0.10675558 -0.060364146 0.03709216
-0.05109159 -0.109781384 -0.018717207 -0.00791894 0.025716774 0.17490685 -0.19081973 -0.5420821
0.7382171 -0.63720703 -1.9760123 -7.113947e-15 -9.437084e-15 -1.0831113e-14 -5.1525565e-15 -4.2052314e-15
7.023799e-15 -7.256629e-15 8.996214e-15 1.0068798e-14 -0.05179611 0.03621784 0.073928915 -0.09389135
-0.3573645 -0.2545151 -0.025248514 -0.38211298 -0.3003906 -0.0015686089 -0.030637663 0.012167648
-0.033644874 -0.14584555 -0.17290963 0.011964651 -0.060424715 -0.11174873 -0.00839877 0.052383337
-0.024110971 0.022113398 0.042662483 -0.1545114 0.0034815143 -0.025093077 -0.2693987 1.2041122e-14
6.081951e-16 -7.605213e-15 -4.8546707e-15 -1.0865643e-14 4.059291e-16 -1.4194163e-14 9.088811e-15 -2.2310191e-15
0.08071571 0.008808894 -0.06815493 0.5584989 -0.10288658 -0.8189205 0.8674518 -0.15226354
-1.4094973 -0.4945959 -0.010414583 0.2403232 -1.2599394 0.23492324 1.8328753 -1.0411981
-0.0025901748 1.6820405 -0.060056835 -0.16290948 -0.14983709 -0.08416213 -0.2533726 -0.29233226
-0.08335392 -0.24385445 -0.2601294 0.0067922114 0.124397315 -0.039514184 0.111730695 0.1121179
-0.13031267 0.06841227 -0.042198535 -0.4324544 0.036658466 -0.011331251 -0.013459543 0.13171497
0.015158348 0.028647013 0.1333089 0.007795598 0.00811133 0.016491694 0.043864556 -0.028933542
0.5684414 -0.045874152 -0.6065342 0.54755926 -0.043376263 -0.67363685 -0.0041483818 0.055900138
-0.00525459 0.08402434 0.043542393 -0.08880159 0.013544676 -0.09900917 -0.3775005 0.034899816
0.10484132 0.09015616 0.05205346 0.17229955 0.16480732 0.051908255 0.16869816 0.15196928
00000000: 53c9 7cbd 67a6 86bd 9558 0f3e f863 b2bf
00000010: cdd1 aebe 7f2f a53f aa67 b0bf af2c 12bf
00000020: 4d6d b13f f00d 543d e6ea 05bc 4752 c43c
00000030: ccb6 0b3e e100 943d 8134 f1bb 9c8b 363e
00000040: 432c 9c3d 546a a1bd aca4 d5bd 608f bc3c
00000050: da77 0fbe 9abe 7ebe 3762 083e 61a7 243f
00000060: 3ae4 ebbe 7988 6c3e 53b1 d83f 26f1 2f3d
00000070: 6ab1 a63d 73b5 13be 5504 2c3f 4108 663e
00000080: 8fc5 71be 50ef 903f 0cbd d53e 267c 0bbf
00000090: 64f7 37ba 8157 c23c c2af 00bd 2828 8a3d
000000a0: 373d f83c 4434 3abd 36b9 983c 3389 c1bd
000000b0: ee71 90be 21bd 3e3c c3cc 02bd 4254 153d
000000c0: c20a 1fbf ffc0 b9bc 53e1 1c3f 68fc 57bf
000000d0: 7810 ecbb bc08 4f3f cabe 1fbc 7693 073d
000000e0: d23d 01bd 7bcd 2e3d bc87 673c 701c 96bd
000000f0: e19c a4bc 8704 91bd b881 7abe c42b d8be
00000100: d521 ca3d 6c1e 8c3d 2af8 58bf 0345 d33e
00000110: 00b7 973f 08ee 45bf f860 1a3d fbe1 663f
00000120: b9f3 01bc caa1 88bd 789d 253d 72e9 aebd
00000130: 0e2e 8bbd a6d3 eb3d b17b 24bd 0437 093d
00000140: f043 a43e f46b 19bc ca9e 16be d45f e7bc
00000150: 098c d1bb aba2 dabd 6540 77bd f3ed 173d
00000160: 6a45 51bd 10d5 e0bd d454 99bc 71be 01bc
00000170: fcab d23c c81a 333e 3f66 43be e4c5 0abf
00000180: ccfb 3c3f 0020 23bf f9ed fcbf 4a27 00a8
00000190: de00 2aa8 b11d 43a8 f2a3 b9a7 6a82 97a7
000001a0: 1c0f fd27 4bb9 02a8 b70f 2228 2362 3528
000001b0: 2828 54bd 2859 143d 0b68 973d 1c4a c0bd
000001c0: 7bf8 b6be ce4f 82be f9d5 cebc 50a4 c3be
000001d0: cccc 99be c899 cdba d6fb fabc d15a 473c
000001e0: 35cf 09bd 8958 15be 390f 31be 6207 443c
000001f0: e87f 77bd 85dc e4bd ff9a 09bc e98f 563d
00000200: 5f84 c5bc 2827 b53c dbbe 2e3d 3d38 1ebe
00000210: 1e2a 643b ff8f cdbc a0ee 89be e0e9 5828
00000220: e14c 2f26 db00 09a8 6fe8 aea7 efbc 43a8
00000230: 9000 ea25 06b3 7fa8 beba 2328 0ac3 20a7
00000240: 474e a53d 2e53 103c d094 8bbd c9f9 0e3f
00000250: 33b6 d2bd c6a4 51bf 5211 5e3f f9ea 1bbe
00000260: 686a b4bf ac3b fdbe eda1 2abc 4917 763e
00000270: b245 a1bf b88f 703e a89b ea3f fb45 85bf
00000280: ecbf 29bb 1a4d d73f 28fe 75bd bed1 26be
00000290: e56e 19be 325d acbd 0eba 81be 93ac 95be
000002a0: 76b5 aabd fbb4 79be ae2f 85be 3391 de3b
000002b0: 05c4 fe3d a0d9 21bd 10d3 e43d 129e e53d
000002c0: af70 05be bb1b 8c3d 5fd8 2cbd aa6a ddbe
000002d0: 3027 163d b6a6 39bc 6a85 5cbc 4ae0 063e
000002e0: b85a 783c 24ad ea3c 2182 083e 3772 ff3b
000002f0: 62e5 043c 9719 873c 52ab 333d 0906 edbc
00000300: 6085 113f 89e6 3bbd d345 1bbf d82c 0c3f
00000310: 4fab 31bd 7773 2cbf 26ef 87bb 8bf7 643d
00000320: b22e acbb f414 ac3d 8259 323d 9cdd b5bd
00000330: 7dea 5d3c 52c5 cabd bf47 c1be 1cf3 0e3d
00000340: 0cb7 d63d cba3 b83d 0236 553d 4b6f 303e
00000350: 40c3 283e c09d 543d 36bf 2c3e d69d 1b3e

onnx::Conv_764 f4 [24]
0.6628528 -0.35805207 -1.0346937 -0.8554776 0.123187974 0.029135758 0.15675674 -0.03163117
-0.10853377 0.2931995 0.59048235 1.5914647e-08 0.16525747 0.4627661 0.15781723 1.565577e-08
1.1572839 -0.03245237 0.37285355 0.12005541 -0.14348748 0.32122564 0.16222918 -0.44411218
00000000: b9b0 293f 9a52 b7be d870 84bf 9400 5bbf
00000010: fa49 fc3d 1dae ee3c d784 203e b08f 01bd
00000020: f446 debd 3f1e 963e da29 173f aeb4 8832
00000030: 4139 293e aeef ec3e d79a 213e 677b 8632
00000040: e121 943f c7ec 04bd a9e6 be3e 9cdf f53d
00000050: 62ee 12be b077 a43e 681f 263e ac62 e3be

onnx::Conv_766 f4 [24, 24, 1, 1]
-0.0055451924 0.08357826 0.0060584093 0.014446847 -0.012216887 -0.002942552 0.004529386 -0.010339165
0.005753553 0.02440182 0.009659669 -8.7333644e-14 -0.23875178 -0.13890609 -0.013458341 -6.266729e-14
-0.00889321 0.10968464 -0.02427629 -0.0058535007 0.018250061 -0.09430176 -0.018872187 -0.016934425
0.18574019 0.05633818 0.0766421 -0.0010957256 0.005300016 -0.042056106 -0.0364745 0.10618243
-0.021300728 -0.07462859 0.96076727 3.5932436e-13 -0.17264973 -0.075519174 0.028835211 8.765564e-14
-0.2042341 0.06558901 0.1349594 0.011860522 0.032534815 -0.037026104 -0.021018805 0.10809739
0.10052491 -0.024578692 0.2658439 0.041940127 0.037417784 -0.05033011 0.013642517 9.983738e-05
0.0013621065 0.048917945 -0.35133883 -1.2628277e-13 0.008667475 -0.007312133 0.05825694 -5.6204004e-14
-0.4305709 0.00617816 -0.008793968 0.0113043515 0.019052776 0.01023301 0.017218774 -0.058219284
-0.124336064 -0.17450163 -0.008604027 0.011965381 0.019009331 -0.007528876 0.14823443 0.018849544
0.0012358114 -0.000675694 0.117896646 -2.1385697e-13 0.22285354 0.36135027 -0.19664289 2.6735772e-13
-0.011773063 0.0515159 -1.0075758 -0.034131777 0.058986675 -0.12177186 0.028629398 -0.9557141
0.014891938 -0.04182375 0.072000526 0.793725 -0.02023055 -0.00054966036 0.0020752987 -0.01043563
-0.00080195244 -0.028007736 0.088702455 5.6219294e-14 0.03147665 0.015564484 0.0073880767 -7.1570605e-14
0.014540064 0.0018169231 -0.04774647 0.0037652238 0.008256624 -0.022030814 -0.0065385597 -0.032854907
0.31598613 0.1853969 0.05918149 0.018567843 -0.024060989 0.3372244 -0.11178445 0.070397496
0.04244842 -0.036182012 0.020654347 -3.5418714e-13 -0.004249914 -0.1787524 -0.02606517 -1.662012e-13
0.37346366 -0.16809274 0.62056977 0.04071957 -0.08321262 0.64255637 0.043824043 0.5064252
-0.011396396 0.059165012 0.023013609 0.021983394 -0.031770654 0.6735271 0.05910479 0.26538602
0.03231977 -0.15260506 -0.004027776 -1.0927557e-13 0.028229255 0.018098215 -0.057048958 1.1273078e-13
-0.015332257 -0.009618366 -0.052024726 -0.11162508 -0.32409015 -0.00054834207 0.02018498 -0.0856614
-0.047518812 0.061268322 -0.055100042 -0.03759773 -0.18772995 -0.011412286 0.03534662 0.05089793
0.050551128 -0.10552638 -0.0014785168 9.6174906e-14 -0.213227 -0.28206867 0.12968868 2.1003399e-13
0.009881473 0.0063768937 -0.44432104 0.013432163 -0.0026944699 -0.014499063 -0.1379587 -0.13032995
-0.040150676 -0.007322263 0.41565126 -0.01990336 -0.0039899875 0.0048846444 0.00311246 -0.0044691907
0.0005407563 -0.009588683 0.025373222 -3.7045687e-14 -0.049040347 0.0029693246 0.007104185 -8.251018e-14
0.061819408 0.008622951 -0.0069674263 0.006430132 -0.0051759593 -0.006384787 0.0075231595 0.0015545979
0.2405467 0.0035906304 -1.0631328 -1.2018299 -0.008890486 -0.00870423 0.007902387 0.022187784
0.044788133 -0.07362959 0.09377082 3.5315262e-13 0.018554583 -0.13260567 -0.10645665 -1.4918888e-13
0.7951903 0.013597457 -0.1546022 -0.045728516 0.03355872 -0.0026204635 -0.001769551 -0.13170552
-0.007177328 0.24892128 0.10398271 0.09622055 0.19637014 0.08428103 0.098485745 -0.19919427
-0.03983537 -0.012652646 0.037653256 -8.75181e-14 -0.1826604 0.023200614 0.060448326 -4.116433e-14
00000000: 72b4 b5bb 142b ab3d 9f85 c63b 78b2 6c3c
00000010: 5729 48bc d5d7 40bb 3e6b 943b 9a65 29bc
00000020: 4d88 bc3b 53e6 c73c 9743 1e3c 6ba8 c4a9
00000030: 597b 74be 663d 0ebe 6080 5cbc 3c1d 8da9
00000040: d4b4 11bc 57a2 e03d 12df c6bc b9ce bfbb
00000050: 2781 953c 4821 c1bd d899 9abc 10ba 8abc
00000060: ad32 3e3e ddc2 663d 89f6 9c3d 739e 8fba
00000070: c2ab ad3b 0643 2cbd 4966 15bd 2d76 d93d
00000080: dd7e aebc e0d6 98bd d8f4 753f 1948 ca2a
00000090: 17cb 30be cca9 9abd d237 ec3c 0962 c529
000000a0: be22 51be 8853 863d cc32 0a3e a352 423c
000000b0: 3a43 053d afa8 17bd a12f acbc 2a62 dd3d
000000c0: 01e0 cd3d 4159 c9bc b11c 883e 69c9 2b3d
000000d0: 6443 193d f226 4ebd dd84 5f3c c95f d138
000000e0: b688 b23a 2f5e 483d afe2 b3be 882e 0eaa
000000f0: 0602 0e3c 9e9a efbb d49e 6e3d ce1e 7da9
00000100: ca73 dcbe 2a72 ca3b 9314 10bc e335 393c
00000110: 9114 9c3c 5ba8 273c 630e 8d3c 5877 6ebd
00000120: e8a3 febd 8eb0 32be e8f7 0cbc 720a 443c
00000130: 75b9 9b3c cab4 f6bb c4ca 173e 5c6a 9a3c
00000140: f3fa a13a 0f21 31ba cc73 f13d 13c8 70aa
00000150: b833 643e e702 b93e c15c 49be 4f82 962a
00000160: cee3 40bc 5602 533d 3ef8 80bf c3cd 0bbd
00000170: 039c 713d 8663 f9bd 3388 ea3c aea9 74bf
00000180: 51fd 733c 614f 2bbd 0375 933d 9031 4b3f
00000190: 8aba a5bc 1517 10ba bc01 083b 34fa 2abc
000001a0: 1e3a 52ba 7b70 e5bc a2a9 b53d 6f30 7d29
000001b0: a9ed 003d 2d02 7f3c ae17 f23b a529 a1a9
000001c0: 7339 6e3c d325 ee3a cd91 43bd f9c1 763b
000001d0: cb46 073c f779 b4bc 6a41 d6bb de92 06bd
000001e0: efc8 a13e afd8 3d3e 4a68 723d 971b 983c
000001f0: 8d1b c5bc ada8 ac3e 3fef e4bd 902c 903d
00000200: 65de 2d3d 9733 14bd 4e33 a93c bf63 c7aa
00000210: dd42 8bbb df0a 37be a086 d5bc 3c20 3baa
00000220: a136 bf3e 8120 2cbe a9dd 1e3f 90c9 263d
00000230: 616b aabd 937e 243f d780 333d 15a5 013f
00000240: f3b7 3abc 0357 723d 0987 bc3c 8516 b43c
00000250: f221 02bd 466c 2c3f dd17 723d ade0 873e
00000260: bc61 043d 8044 1cbe 6ffb 83bb 1411 f6a9
00000270: 0a41 e73c b542 943c 2bac 69bd dfd8 fd29
00000280: 2634 7bbc 5a96 1dbc e117 55bd b19b e4bd
00000290: 25ef a5be 9dbe 0fba f95a a53c 3e6f afbd
000002a0: 16a3 42bd 7ef4 7a3d 95b0 61bd 1400 1abd
000002b0: 483c 40be 99fa 3abc 9ec7 103d 597a 503d
000002c0: b30e 4f3d 371e d8bd cbca c1ba 0f91 d829
000002d0: 2e58 5abe 4e6b 90be 1ccd 043e 2d7a 6c2a
000002e0: e7e5 213c 43f5 d03b 0c7e e3be 9312 5c3c
000002f0: b495 30bb 7a8d 6dbc 0c45 0dbe 3775 05be
00000300: 0975 24bd 98ef efbb 3ed0 d43e 5f0c a3bc
00000310: 71be 82bb 5e0f a03b 6afa 4b3b 4a72 92bb
00000320: 8ac1 0d3a da19 1dbc 81db cf3c c5d6 26a9
00000330: 88de 48bd 0099 423b 39ca e83b e1cb b9a9
00000340: 5936 7d3d 4747 0d3c 024f e4bb dbb3 d23b
00000350: 189b a9bb 7a37 d1bb d684 f63b a6c3 cb3a
00000360: e051 763e c850 6b3b bc14 88bf 90d5 99bf
00000370: 67a9 11bc 309c 0ebc 0379 013c 28c3 b53c
00000380: c373 373d 1ccb 96bd ea0a c03d a8ce c62a
00000390: c8ff 973c c8c9 07be f205 dabd c4f8 27aa
000003a0: 9791 4b3f dec7 5e3c 0a50 1ebe d34d 3bbd
000003b0: de74 093d 15bc 2bbb 47f0 e7ba d0dd 06be
000003c0: cb2f ebbb 38e5 7e3e e3f4 d43d 480f c53d
000003d0: 4115 493e 889b ac3d e5b2 c93d 95f9 4bbe
000003e0: 6a2a 23bd 0b4d 4fbc 4d3a 1a3d c012 c5a9
000003f0: 540b 3bbe 370f be3c aa98 773d 3e63 39a9

onnx::Conv_767 f4 [24]
0.20344125 -0.03539441 0.27095756 0.47028267 0.17160091 0.093462676 0.018844334 0.2708299
0.062758274 -0.13785374 0.013296814 0.08563427 0.26260298 0.130022 -0.0415431 0.07974032
0.47510043 0.091909274 0.112085685 0.11024194 0.48668212 -0.12670381 0.04349525 0.111149564
00000000: e752 503e bbf9 10bd f3ba 8a3e e4c8 f03e
00000010: 26b8 2f3e 5c69 bf3d 6f5f 9a3c 37aa 8a3e
00000020: 6987 803d 8829 0dbe e1da 593c 0561 af3d
00000030: e673 863e 7d24 053e 1929 2abd e54e a33d
00000040: 5d40 f33e ee3a bc3d 2e8d e53d 87c6 e13d
00000050: 662e f93e a5be 01be 1328 323d 62a2 e33d

onnx::Conv_769 f4 [24, 24, 1, 1]
0.22555153 0.024508035 0.19628352 0.2163452 0.013225474 0.080850236 0.0046728505 0.11389672
0.006790625 0.009824592 0.098345816 1.09219735e-13 0.15898597 0.01887061 0.010946324 -1.3057176e-14
0.32713723 0.2106343 -0.00794476 0.017182168 0.006461307 0.043084223 0.012752879 0.015400647
0.10554616 0.10576324 -0.02207023 -0.021117093 0.21179676 0.50471 0.13366437 -0.065842554
-0.32745862 -0.13689487 0.07067192 -1.689626e-13 0.013021076 0.11555152 -0.26928326 7.375751e-15
0.08847469 0.07125769 -0.03901696 -0.3587238 -0.14794542 0.11934784 0.1835984 -0.09882803
0.03646865 -0.058068447 -0.019520313 -0.023666784 0.19231594 -0.2588043 -0.55857134 -0.06701409
0.024102546 -0.03014956 0.024314545 1.4258545e-13 0.048865434 -0.07371551 0.056901377 2.5995245e-14
0.039996702 -0.08757879 -0.006156391 0.06171205 0.0521349 -0.17087168 -0.051853027 -0.0072766896
0.15203229 -0.35888985 0.09204931 0.10029937 0.1830516 0.15258865 0.22235504 0.011169996
-0.147116 -0.41823655 -0.08568924 7.827661e-14 0.11215268 0.22041497 -0.18113233 -9.541488e-14
0.0962369 0.06548988 -0.11193646 -0.0985682 -0.35252112 0.16001403 0.15763372 -0.45104173
-0.2315764 -0.048928086 -0.036864787 -0.09640076 -0.2879011 0.0074350606 -0.25322247 -0.0070329043
0.116594166 -0.071245305 -0.14890952 1.3029707e-13 -0.15575379 -0.07060262 0.13369957 1.9811975e-13
-0.32886323 -0.1264679 -0.074715935 0.09901664 -0.08205479 0.09051704 -0.23879068 -0.06247222
-0.33503678 -0.041084684 -0.4117997 -0.36018372 -0.018500585 -0.084925346 -0.015203984 -0.2595258
-0.010014851 -0.0052997097 -0.31862345 3.9273665e-14 -0.24501903 -0.037902027 -0.0056668855 3.0162975e-14
-0.56467986 -0.44365534 -0.0009994715 -0.015686275 -0.011081897 -0.07897591 -0.033623185 -0.017179599
0.041936822 0.21671578 0.0736658 0.07887823 -0.31780544 0.19002613 -0.31449515 -0.027149053
-0.25568303 0.2251242 0.07611469 8.655428e-14 0.06888917 -0.6166557 -0.18952164 2.062597e-13
0.1037352 0.0860681 0.13744777 -0.14028819 0.33658907 0.28666225 -0.38799277 0.26518032
0.08518283 0.2446721 0.095294744 0.07261905 -0.12286684 -0.036485426 -0.13220191 0.15882708
-0.23732533 0.22741044 0.005802499 -1.3035299e-13 0.069735676 -0.23668844 -0.19874842 1.1363471e-13
0.09328943 0.10063642 0.12999882 -0.24875818 0.21134274 0.17428614 -0.07030465 0.19367981
-0.019965542 -0.052094497 -0.02238037 -0.055486504 -0.56284016 -0.18845135 0.22401392 -0.03379263
-0.0084857205 -0.055573117 -0.046030466 -1.1190212e-13 -0.0354016 -0.1552426 0.0541378 -8.3954316e-16
-0.06648068 0.20012194 0.16694357 0.07472055 -0.111586474 -0.07764553 -0.039190296 0.053937543
0.06802682 0.014325421 0.060189866 0.0874868 -0.28086445 0.076672524 -0.27267337 0.07538697
0.1163895 0.00952707 0.01593653 -1.1710951e-13 -0.011519083 -0.022111367 0.10772534 -5.454351e-14
0.056198243 0.070100754 -0.046515148 0.15697601 -0.05496873 0.19450988 -0.2798827 -0.02082461
0.15515506 0.029329838 -0.024521753 0.031881064 0.16535017 0.033016447 -0.13186765 0.08248329
0.19074988 0.14599773 0.091409385 3.9320598e-14 -0.03754746 -0.0049361223 -0.21135826 -2.0070177e-13
00000000: fbf6 663e 13c5 c83c 8cfe 483e 9989 5d3e
00000010: a9af 583c cf94 a53d b61e 993b af42 e93d
00000020: e483 de3b 53f7 203c 8869 c93d e4f0 f529
00000030: 38cd 223e 8a96 9a3c 3658 333c 9937 6ba8
00000040: 887e a73e 85b0 573e bd2a 02bc 9ec1 8c3c
00000050: 5fb9 d33b 1579 303d 74f1 503c ff52 7c3c
00000060: 9628 d83d 669a d83d a1cc b4bc c1fd acbc
00000070: 40e1 583e ad34 013f 50df 083e 76d8 86bd
00000080: a8a8 a7be 2b2e 0cbe 71bc 903d 273c 3eaa
00000090: 5a56 553c 46a6 ec3d 7fdf 89be a6de 0428
000000a0: 3832 b53d 8def 913d 3fd0 1fbd a5aa b7be
000000b0: 017f 17be a46c f43d 3801 3c3e 5a66 cabd
000000c0: 2760 153d 2ed9 6dbd 10e9 9fbc d8e0 c1bc
000000d0: 78ee 443e ff81 84be 88fe 0ebf af3e 89bd
000000e0: b472 c53c 36fc f6bc 4c2f c73c 7589 202a
000000f0: 1f27 483d 28f8 96bd 6b11 693d f424 ea28
00000100: 95d3 233d 825c b3bd 8dbb c9bb c6c5 7c3d
00000110: 688b 553d fcf8 2ebe d763 54bd 4c71 eebb
00000120: 5aae 1b3e 69c0 b7be 5984 bc3d c269 cd3d
00000130: e171 3b3e 3340 1c3e 0ab1 633e 5c02 373c
00000140: 94a5 16be 1a23 d6be d77d afbd 6543 b029
00000150: 4eb0 e53d 76b4 613e c17a 39be efda d6a9
00000160: da17 c53d 8f1f 863d f13e e5bd 20de c9bd
00000170: a67d b4be b8da 233e bc6a 213e f1ee e6be
00000180: 5d22 6dbe d168 48bd 88ff 16bd c36d c5bd
00000190: c667 93be cfa1 f33b 60a6 81be 4774 e6bb
000001a0: ecc8 ee3d 0fe9 91bd bd7b 18be 93b3 122a
000001b0: ec7d 1fbe 1b98 90bd 8ae8 083e 2110 5f2a
000001c0: c360 a8be cd80 01be ab04 99bd 3cc9 ca3d
000001d0: 570c a8bd ff60 b93d 8b85 74be dfe2 7fbd
000001e0: f189 abbe 6a48 28bd 69d7 d2be 006a b8be
000001f0: 8a8e 97bc 57ed adbd 221a 79bc 91e0 84be
00000200: 5415 24bc 30a9 adbb 9d22 a3be 74df 3029
00000210: 45e6 7abe 283f 1bbd 48b1 b9bb 8bd7 0729
00000220: dc8e 10bf cb26 e3be b300 83ba 8180 80bc
00000230: d890 35bc 1fbe a1bd 77b8 09bd 3bbc 8cbc
00000240: f2c5 2b3d beea 5d3e 18de 963d e98a a13d
00000250: 65b7 a2be 3696 423e 8205 a1be b167 debc
00000260: e3e8 82be f586 663e 05e2 9b3d 25e7 c229
00000270: c415 8d3d 26dd 1dbf f611 42be 503a 682a
00000280: 1f73 d43d 7944 b03d 1cbf 0c3e b5a7 0fbe
00000290: 6755 ac3e 65c5 923e fda6 c6be b7c5 873e
000002a0: 5674 ae3d 538b 7a3e e429 c33d 4cb9 943d
000002b0: 9ca1 fbbd be71 15bd f05f 07be 91a3 223e
000002c0: 6905 73be 48de 683e e422 be3b b1c3 12aa
000002d0: 94d1 8e3d 745e 72be b584 4bbe f3e1 ff29
000002e0: 870e bf3d 781a ce3d 691e 053e 77ba 7ebe
000002f0: 3b6a 583e 1178 323e e2fb 8fbd 0054 463e
00000300: c78e a3bc 0a61 55bd 0a57 b7bc d145 63bd
00000310: 4b16 10bf 64f9 40be e863 653e 246a 0abd
00000320: b107 0bbc a3a0 63bd 718a 3cbd 2efb fba9
00000330: 4501 11bd ebf7 1ebe 99bf 5d3d 5afb 71a6
00000340: 0627 88bd c4ec 4c3e 41f3 2a3e 1607 993d
00000350: 7387 e4bd 9f04 9fbd 0186 20bd 9ded 5c3d
00000360: a551 8b3d 2cb5 6a3c a689 763d 482c b33d
00000370: 77cd 8fbe 7c06 9d3d d89b 8bbe 7c64 9a3d
00000380: 9e5d ee3d 6e17 1c3c 538d 823c 85da 03aa
00000390: 89ba 3cbc e622 b5bc 1a9f dc3d 63a4 75a9
000003a0: 2130 663d fc90 8f3d ab86 3ebd 52be 203e
000003b0: e426 61bd 992d 473e c94c 8fbe 5f98 aabc
000003c0: f8e0 1e3e 2145 f03c d8e1 c8bc b895 023d
000003d0: 8e51 293e 413c 073d 5008 07be 00ed a83d
000003e0: f053 433e 6e80 153e d834 bb3d 9015 3129
000003f0: 5ecb 19bd 32bf a1bb 4d6e 58be 59f8 61aa

onnx::Conv_770 f4 [24]
-0.90172803 -0.538835 0.6222811 -0.17006679 0.8910194 2.1907992 -0.22766094 -0.053801984
0.66576046 -0.16939515 -0.48277855 0.23669185 0.40811914 -0.2703285 -1.474379 1.7829509
0.12562291 -0.20662478 -0.18637693 0.078864664 -0.18134305 2.8411276 0.5354492 -0.13633364
00000000: a6d7 66bf 17f1 09bf d04d 1f3f fd25 2ebe
00000010: d919 643f 0e36 0c40 f31f 69be 785f 5cbd
00000020: 476f 2a3f ec75 2dbe c02e f7be 595f 723e
00000030: fef4 d03e 7f68 8abe 73b8 bcbf bc37 e43f
00000040: 4ba3 003e 7295 53be 98d9 3ebe cc83 a13d
00000050: feb1 39be 09d5 3540 3313 093f 0c9b 0bbe

onnx::Conv_772 f4 [24, 1, 3, 3]
0.06864787 1.147031 0.39424944 -0.7266402 -1.2864913 -4.6737456 0.055013567 1.9949341
1.9978856 -0.08811436 -0.40727016 -0.17226632 -0.28402257 -0.7680452 -0.52596235 -0.06220435
-0.3751282 -0.19995828 0.15863805 0.30989918 0.27570125 0.40390283 0.9845774 0.7502093
0.3174459 1.0620669 0.9456709 0.18952942 0.5017734 0.59242135 0.4605717 0.9272011
0.71870136 0.36403087 0.7904622 0.6948271 -0.49513853 2.0810719 -0.8668233 -1.0955188
2.571404 -2.1775756 -0.84587306 1.8423175 -1.3238878 0.57349753 -1.0306638 0.9085175
0.79141045 -3.080202 0.2811233 0.82682806 -1.1129643 1.1342374 -0.035575006 -0.1823886
-0.33585516 -0.20218356 -0.56447333 -0.83748037 -0.21508534 -0.4414231 -0.9131579 -0.19939831
-0.32511893 -0.070070915 -0.20835528 -0.59512246 -0.3266819 -0.029376645 -0.3586667 -0.37153623
-0.033097625 -0.21713276 -0.2528345 -0.39226893 -0.8629391 -0.6972726 -0.46411762 -0.92184985
-0.49692994 0.01790844 0.39873087 0.13114269 0.25779682 0.78706604 0.60360104 -0.012131605
0.3699319 0.26004905 -0.0984727 -0.35165092 -0.35283995 -0.24904163 -0.61969537 -0.55091006
-0.19524458 -0.35388267 -0.35152122 0.019964347 0.548374 0.49775922 0.348594 1.2434402
1.1236618 0.4808974 0.9537079 0.6190222 0.32980528 1.2489313 -0.14099798 0.9493518
1.0346159 -0.76324093 -0.22073853 -0.18516229 -2.1566236 -0.04923817 -0.25176528 -0.50690085
-0.14066371 -1.1716564 -1.5844486 -0.29470858 -1.0572169 -1.3843116 -0.11575104 -0.21506228
-0.20304605 -0.1148381 -0.593218 -0.7385096 -0.09053539 -0.7795251 -0.9851573 0.32413667
1.2002733 1.5899295 -0.28858685 -3.8258543 -3.8110926 0.5477313 1.6336654 2.4322054
0.17817576 0.33716205 0.0897655 0.22006431 0.51157784 0.34424457 0.06511825 0.33336744
0.39632088 -0.20329817 -0.61327267 -0.40951455 -0.46762237 -1.0181395 -0.73750615 -0.33587822
-0.83573115 -0.8727832 0.137572 -0.17964332 -0.85976404 -0.15865257 -0.5829732 -3.144315
0.06992167 -4.527857 -8.174821 -0.09950448 -0.47794187 -0.5599558 -0.339991 -1.0647264
-1.2113312 -0.2693373 -0.91863424 -1.0276884 -0.078924485 -0.23785104 -0.27466208 -0.20843454
-0.59185535 -0.7010829 -0.10303559 -0.47782907 -0.57945395 -0.12340566 -0.16727087 -0.12059371
-0.15577225 -0.47715804 -0.55425024 -0.18645102 -0.5890973 -0.7507451 -0.64297646 -2.653294
-1.6990532 -0.08705826 -0.48053864 -0.35692155 0.69229066 3.2281995 2.154218 -0.32479018
-0.46084902 -0.42084366 -0.46678713 1.2304168 1.6140679 0.2168164 2.6040077 3.1358955
00000000: 4197 8c3d e9d1 923f 10db c93e 1805 3abf
00000010: bfab a4bf 538f 95c0 e855 613d 005a ff3f
00000020: b7ba ff3f 4d75 b4bd b785 d0be 9566 30be
00000030: 686b 91be 9c9e 44bf 78a5 06bf fdc9 7ebd
00000040: ce10 c0be ddc1 4cbe 0372 223e 1bab 9e3e
00000050: b728 8d3e 5acc ce3e 440d 7c3f b70d 403f
00000060: 4588 a23e cff1 873f 7d17 723f 0014 423e
00000070: 3974 003f eda8 173f 0ed0 eb3e 0d5d 6d3f
00000080: d0fc 373f 4162 ba3e bb5b 4a3f 30e0 313f
00000090: cc82 fdbe 4830 0540 22e8 5dbf f639 8cbf
000000a0: e291 2440 665d 0bc0 238b 58bf 0fd1 eb3f
000000b0: 2875 a9bf bcd0 123f cbec 83bf 9a94 683f
000000c0: e099 4a3f 0822 45c0 65ef 8f3e 01ab 533f
000000d0: 9d75 8ebf b12e 913f 19b7 11bd 14c4 3abe
000000e0: 35f5 abbe 3509 4fbe 5381 10bf 1d65 56bf
000000f0: 553f 5cbe 3502 e2be b7c4 69bf 122f 4cbe
00000100: fd75 a6be 5781 8fbd 165b 55be f259 18bf
00000110: da42 a7be 4aa7 f0bc 29a3 b7be ff39 bebe
00000120: 6091 07bd 0d58 5ebe 8673 81be 79d7 c8be
00000130: 94e9 5cbf 7580 32bf d3a0 edbe 5afe 6bbf
00000140: 9a6d febe b9b4 923c 7426 cc3e 454a 063e
00000150: f2fd 833e 297d 493f 9985 1a3f a4c3 46bc
00000160: b767 bd3e 2625 853e 0eac c9bd 970b b4be
00000170: 70a7 b4be c504 7fbe 5ba4 1ebf 7108 0dbf
00000180: 32ee 47be 1c30 b5be 97fa b3be 458c a33c
00000190: 3d62 0c3f 4cda fe3e ea7a b23e 0c29 9f3f
000001a0: 26d4 8f3f 2f38 f63e 3326 743f 3d78 1e3f
000001b0: 3ddc a83e fbdc 9f3f c661 10be b808 733f
000001c0: 4b6e 843f c263 43bf 4809 62be 2f9b 3dbe
000001d0: 1f06 0ac0 f7ad 49bd 61e7 80be 41c4 01bf
000001e0: 260a 10be d6f8 95bf 36cf cabf 0be4 96be
000001f0: e252 87bf 1f31 b1bf e20e edbd 4939 5cbe
00000200: 4eeb 4fbe 3d30 ebbd 23dd 17bf f70e 3dbf
00000210: 9e6a b9bd f58e 47bf 4533 7cbf 3ef5 a53e
00000220: 8ea2 993f cf82 cb3f a8c1 93be ccda 74c0
00000230: f1e8 73c0 1e38 0c3f f31b d13f 41a9 1b40
00000240: b573 363e 81a0 ac3e f9d6 b73d 8a58 613e
00000250: c4f6 023f d340 b03e b85c 853d 23af aa3e
00000260: 92ea ca3e 652d 50be 70ff 1cbf e4ab d1be
00000270: 336c efbe 6552 82bf 34cd 3cbf 3bf8 abbe
00000280: 7af2 55bf b86e 5fbf addf 0c3e 6bf4 37be
00000290: 7f19 5cbf d275 22be bb3d 15bf 753c 49c0
000002a0: 1833 8f3d 34e4 90c0 11cc 02c1 01c9 cbbd
000002b0: ccb4 f4be 4359 0fbf 4d13 aebe f448 88bf
000002c0: e70c 9bbf 94e6 89be 9d2b 6bbf 4b8b 83bf
000002d0: 29a3 a1bd 398f 73be 82a0 8cbe dd6f 55be
000002e0: d583 17bf 2b7a 33bf 5304 d3bd 03a6 f4be
000002f0: 1857 14bf 1bbc fcbd 0e49 2bbe d6f9 f6bd
00000300: c382 1fbe 0f4e f4be 58e3 0dbf 04ed 3ebe
00000310: 15cf 16bf d530 40bf 1b9a 24bf 92cf 29c0
00000320: 937a d9bf 9a4b b2bd 2909 f6be 6cbe b6be
00000330: f639 313f d29a 4e40 b5de 0940 e64a a6be
00000340: 67f4 ebbe d278 d7be b9fe eebe 4c7e 9d3f
00000350: c799 ce3f 1e05 5e3e 10a8 2640 83b2 4840

onnx::Conv_773 f4 [24]
0.13456888 0.48734576 -0.28067243 -0.3050355 0.047041375 0.34131733 0.41326475 0.7289064
0.31697598 -0.5930515 0.19573434 -0.2238916 -0.010484485 0.33497798 0.28982878 0.005644621
-0.7041878 0.31429517 2.1079624 0.37730637 0.43476588 0.5637969 -0.10510601 -0.24171981
00000000: 6dcc 093e 6285 f93e 4cb4 8fbe 9d2d 9cbe
00000010: 75ae 403d 25c1 ae3e 7097 d33e 9c99 3a3f
00000020: ad4a a23e 39d2 17bf 956e 483e d743 65be
00000030: 1ec7 2bbc 3c82 ab3e 7064 943e 83f6 b83b
00000040: a745 34bf 4ceb a03e dbe8 0640 4d2e c13e
00000050: a299 de3e fe54 103f d241 d7bd 6685 77be

onnx::Conv_775 f4 [24, 24, 1, 1]
0.021415917 -0.02967076 0.02088346 0.023384612 -0.0076640397 -0.019144246 -0.046168778 -0.034812175
-0.007063701 0.055649098 0.093575485 0.0055247922 0.007495007 -0.04864695 -0.007881758 -0.0038112458
0.035383042 -0.047931176 0.16428879 -0.08203656 -0.024645334 -0.017750163 0.023498189 0.046286423
-0.029488578 0.04043013 0.026151937 -0.042084213 -0.0027509609 0.044374112 0.06507543 0.013795691
0.039229047 -0.017152373 0.20150022 0.08912228 -0.016638856 0.04890585 -0.06404053 -0.015777698
-0.042739682 -0.025446046 -0.108465075 -0.04237264 0.11211301 0.117329754 -0.5922275 0.046120316
-0.110826194 -0.06605477 0.2362588 0.028455779 0.23392084 -0.412345 0.17347245 -0.03944157
-0.20738854 -0.17124659 0.09513726 -0.009938669 0.020906508 0.10178132 -0.01327688 -0.07163645
-0.011713436 0.004162895 -0.09511336 -0.08394899 0.13281913 0.061433528 0.08907161 0.066447996
0.025388395 0.09130765 0.17193757 -0.10903458 -0.0731607 -0.122413605 -0.080163665 0.074484624
-0.2639439 0.089018665 0.176668 0.07928127 0.030649357 -0.2157963 -0.041454066 0.022482038
-0.006038151 -0.08081588 0.12794441 -0.19572245 -0.3411386 0.12931351 0.15965319 0.1288851
-0.0025526863 0.07062211 0.0063216123 0.21881817 -0.022880632 0.019452829 0.26878393 0.22248359
-0.028528016 0.06418641 -0.019059535 -0.022947872 -0.2050579 -0.11019883 -0.026321901 0.0041004783
0.16510734 0.2718462 -0.02796828 0.03543605 -0.24247451 0.014732108 -0.012344513 -0.029756777
0.0026116245 0.24665955 -0.10729148 -0.011648094 0.03868332 0.09513162 -0.006008981 0.21427771
-0.0141849695 0.10658309 0.20788066 -0.06719926 0.055746935 -0.022306807 -0.0678346 0.039786372
-0.13243778 0.15263547 -0.01607627 -0.056688137 -0.020063542 -0.07905955 0.09117835 -0.07579446
0.4595626 0.1002154 0.08822257 -0.042311855 -0.085950054 -0.0021751705 0.06784431 0.074495904
-0.074143775 0.095806606 0.032190934 0.12756622 -0.013582131 -0.09799966 -0.007497708 -0.24572591
-0.049472466 0.08482482 0.015943812 -0.105261564 0.017586878 0.039068304 0.06419425 -0.03667115
-0.27128553 0.020838963 0.1123852 -0.030395953 0.084487595 0.12878035 0.0072544906 0.0072481623
-0.07982146 0.021316335 -0.14814351 0.35356113 0.0038006646 0.12527533 -0.0010159928 0.42512855
-0.011829879 0.03072826 0.041890245 -0.112547524 -0.053008065 0.1329889 0.042055674 -0.115930066
0.0076695867 -0.063739575 0.014470664 0.25847906 -0.008709738 -0.0003518235 0.26824972 0.2940076
-0.028684596 0.02031244 0.021161415 -0.0233975 -0.017660199 -0.055140194 -0.009382535 -0.0014899767
0.2759248 0.27657357 0.003369091 0.00056857197 -0.21847227 -0.010595595 0.023441339 0.0060768398
0.015114876 0.059918255 -0.06916284 0.10675412 0.0031396204 0.03764015 0.044945102 -0.09651024
-0.022517221 0.16750334 -0.16447105 -0.053933922 0.027005157 -0.023545373 -0.24884208 0.0036468948
0.10053445 -0.08444206 0.106269255 0.09076453 0.079817645 0.22925329 -0.11597546 -0.06045186
-0.023148565 -0.083083704 0.033994716 0.009340257 -0.01968133 -0.007570399 -0.087363325 0.06244925
-0.025964849 0.027543884 0.054951485 0.022052601 -0.00019901553 -0.079992056 -0.03043354 0.044437878
00000000: 6f70 af3c 1810 f3bc ca13 ab3c 1691 bf3c
00000010: a022 fbbb 65d4 9cbc 791b 3dbd 3697 0ebd
00000020: 9e76 e7bb 4ff0 633d 81a4 bf3d 5109 b53b
00000030: ad98 f53b 0642 47bd 7d22 01bc 18c6 79bb
00000040: cfed 103d 7b53 44bd 523b 283e c902 a8bd
00000050: 03e5 c9bc ca68 91bc 467f c03c d596 3d3d
00000060: 0892 f1bc 109a 253d 963c d63c 7f60 2cbd
00000070: 7749 34bb a1c1 353d 4446 853d 5207 623c
00000080: a3ae 203d 2283 8cbc 1356 4e3e be85 b63d
00000090: 364e 88bc 8051 483d ae27 83bd 3b40 81bc
000000a0: ce0f 2fbd 3a74 d0bc f022 debd ef8e 2dbd
000000b0: 819b e53d 954a f03d 399c 17bf a8e8 3c3d
000000c0: d8f8 e2bd b947 87bd d4ed 713e 181c e93c
000000d0: f288 6f3e e21e d3be c3a2 313e 7c8d 21bd
000000e0: a95d 54be 445b 2fbe 53d7 c23d cdd5 22bc
000000f0: 2044 ab3c ba72 d03d 4587 59bc 22b6 92bd
00000100: b6e9 3fbc e568 883b cbca c2bd 73ed abbd
00000110: bd01 083e b9a1 7b3d 2d6b b63d e315 883d
00000120: 53fb cf3c 81ff ba3d 6710 303e 864d dfbd
00000130: 47d5 95bd fcb3 fabd d92c a4bd 658b 983d
00000140: a823 87be 6b4f b63d 75e8 343e 385e a23d
00000150: 5c14 fb3c b5f9 5cbe bdcb 29bd 402c b83c
00000160: afdb c5bb cc82 a5bd dc03 033e 776b 48be
00000170: b8a9 aebe c36a 043e 207c 233e 75fa 033e
00000180: f84a 27bb 53a2 903d 8725 cf3b df11 603e
00000190: 2a70 bbbc 8a5b 9f3c 0c9e 893e bdd2 633e
000001a0: 96b3 e9bc 2a74 833d be22 9cbc 2dfd bbbc
000001b0: b3fa 51be edaf e1bd 07a1 d7bc 4e5d 863b
000001c0: e611 293e 6d2f 8b3e bc1d e5bc 6425 113d
000001d0: 3d4b 78be f15e 713c a440 4abc 7cc4 f3bc
000001e0: ca27 2b3b 5294 7c3e a3bb dbbd a6d7 3ebc
000001f0: 6772 1e3d 5ed4 c23d fce6 c4bb 9e6b 5b3e
00000200: 1368 68bc 3c48 da3d abde 543e c49f 89bd
00000210: e656 643d c4bc b6bc deec 8abd 09f7 223d
00000220: c59d 07be 794c 1c3e 62b2 83bc d231 68bd
00000230: 4c5c a4bc f9e9 a1bd b7bb ba3d 203a 9bbd
00000240: ca4b eb3e bb3d cd3d 09ae b43d 324f 2dbd
00000250: 9506 b0bd 4e8d 0ebb f5f1 8a3d 4f91 983d
00000260: b1d8 97bd 4136 c43d a4da 033d b8a0 023e
00000270: 9687 5ebc 0cb4 c8bd 55af f5bb 939f 7bbe
00000280: a4a3 4abd a3b8 ad3d 999c 823c 6093 d7bd
00000290: 5b12 903c 1606 203d 4678 833d 7d34 16bd
000002a0: f0e5 8abe 79b6 aa3c 362a e63d ef00 f9bc
000002b0: d507 ad3d ffde 033e 14b7 ed3b fe81 ed3b
000002c0: 6f79 a3bd 989f ae3c efb2 17be f705 b53e
000002d0: 9214 793b 2d48 003e 102b 85ba 73aa d93e
000002e0: 1cd2 41bc d5b9 fb3c 1b95 2b3d 517f e6bd
000002f0: fc1e 59bd 3e2e 083e 9242 2c3d be6c edbd
00000300: 2851 fb3b e589 82bd 5d16 6d3c 5e57 843e
00000310: 4ab3 0ebc f374 b8b9 0758 893e 2a88 963e
00000320: f5fb eabc 4666 a63c b45a ad3c 1dac bfbc
00000330: 1fac 90bc afda 61bd 34b9 19bc 524b c3ba
00000340: 0446 8d3e 0d9b 8d3e f8cb 5c3b 380c 153a
00000350: 32b7 5fbe 2699 2dbc 0d08 c03c 3a20 c73b
00000360: 63a4 773c d86c 753d 3fa5 8dbd e7a1 da3d
00000370: 17c2 4d3b 8f2c 1a3d 5b18 383d 29a7 c5bd
00000380: 0976 b8bc ff85 2b3e 196b 28be d1e9 5cbd
00000390: eb39 dd3c 3ae2 c0bc 75d0 7ebe be00 6f3b
000003a0: 01e5 cd3d f5ef acbd b2a3 d93d c1e2 b93d
000003b0: 6f77 a33d 60c1 6a3e 8b84 edbd 5f9c 77bd
000003c0: 0fa2 bdbc ca27 aabd 0b3e 0b3d e107 193c
000003d0: be3a a1bc 1c11 f8bb 8beb b2bd c9ca 7f3d
000003e0: 3cb4 d4bc b6a3 e13c cf14 613d a8a7 b43c
000003f0: d3ae 50b9 e0d2 a3bd c24f f9bc 7e04 363d

onnx::Conv_776 f4 [24]
0.48032933 0.23713574 0.23715416 -0.12957053 0.6966414 0.36540335 0.26314068 0.09107173
0.002891308 0.35654807 0.87141025 -0.033736803 0.60303855 0.028378373 0.6244412 0.25463367
0.21967556 -0.19167493 0.19502668 0.47198504 0.6480132 0.11419474 0.09158035 0.11899836
00000000: baed f53e b6d3 723e 8ad8 723e 23ae 04be
00000010: 1757 323f 2616 bb3e 60ba 863e d183 ba3d
00000020: 197c 3d3b 788d b63e be14 5f3f 9a2f 0abd
00000030: bc60 1a3f c379 e83c 61db 1f3f 585f 823e
00000040: a1f2 603e 6f46 44be 13b5 473e 06a8 f13e
00000050: 31e4 253f efde e93d 7b8e bb3d 6ab5 f33d

onnx::Conv_778 f4 [24, 24, 1, 1]
0.06811269 0.1590324 0.10526136 -0.14355114 0.018392706 0.031874847 -0.009415007 -0.046946738
-0.01997756 0.0982848 0.15848726 0.004033895 -0.053628404 0.30776182 0.22850709 0.03767417
-0.5914314 -0.11113778 0.14320756 -0.014085652 0.56761104 -0.73064244 0.33951852 0.0770496
-0.039936684 -0.12323123 -0.4981845 0.089318275 0.7813838 0.23014505 -0.87017494 -0.1458695
-0.5625347 0.30468774 0.19321145 0.16410808 -0.00058769836 -0.05522126 -0.008297875 0.0714703
0.005985063 -0.007213787 -0.097651795 -0.042476106 -0.04204873 -0.026975129 0.029842468 -0.1669228
0.5231542 -0.014034951 0.044153478 0.04528561 0.31668428 -0.07429296 -0.090907454 -0.5635751
0.008689503 -0.023906326 -0.018267818 0.24112926 -0.022315538 0.0056158225 -0.016965909 -0.06798651
0.07473291 -0.0063717496 0.13438734 -0.0652162 0.061632514 -0.007845458 -0.018149925 -0.042459045
-0.008960261 -0.13457647 -0.043762866 0.2041425 -0.008676415 0.003439529 -0.034568705 -0.05039141
0.0012644462 0.019079605 -0.03522919 -0.011924009 0.07424487 -0.29785615 0.047800727 0.06426393
-0.33724022 -0.016954012 -0.09198731 -0.05208515 -0.07344055 -0.27930582 -0.12269733 -0.06403033
-0.21267101 -1.0181174 -0.008045955 -0.4946309 0.15316947 0.05669372 0.2549891 0.22712283
-0.1342899 0.25480488 -0.22335762 0.171559 0.065341756 0.07474303 -0.06179768 -0.0066165556
-0.3357134 -0.01033381 0.10535876 0.055579398 -0.009892813 0.29363194 0.0665586 -0.05007138
-0.27892807 0.030404137 0.07870858 0.11728638 0.038119934 -0.13252395 0.15626211 0.3814499
0.12591313 -0.121792115 -0.008155135 -0.0044805817 -0.0001723889 0.054972887 0.027386844 -0.07014328
-0.038505234 0.013798362 0.1223118 -0.017545288 0.10173504 0.018972654 -0.01957541 -0.009564409
0.0009002749 0.083870545 0.13874874 -0.09312435 -0.020634972 0.23412625 0.022003017 -0.028455447
-0.108669095 -0.18908815 -0.112492196 0.01197052 0.43766856 -0.033593494 -0.042252213 -0.22257167
0.07189371 -0.09767654 0.13128777 -0.48373857 -0.0045084 -0.24102187 -0.07060611 -0.18285236
-0.23304738 0.0407814 0.29229277 0.009930333 -0.04529889 -0.27442336 -0.120789796 0.16194804
0.13916436 -0.28125212 -0.02401078 -0.46642038 0.016374478 0.03456221 0.033360843 -0.05437538
0.07554205 -0.051643077 -0.046726324 0.014228029 0.021466238 -0.021115528 -0.0020564946 0.017558288
-0.12800962 0.04649955 0.07768411 -0.3996731 -0.023544226 0.066117994 -0.1278357 0.08252929
0.13397872 -0.092213154 0.021480879 -0.13998732 0.41216347 -0.27906418 0.12159773 0.35679922
0.15233521 -0.065788254 -0.044648223 0.37404642 0.022601338 0.22205025 0.17049778 -0.041535173
0.025143491 -0.0704396 0.15203017 -0.04933029 0.012642713 0.13579886 0.05407383 0.027553583
-0.18042774 -0.17586641 -0.13757491 0.014381368 -0.60840213 -0.0061252937 0.016968554 -0.20107752
0.021527808 -0.08550134 -0.12618163 0.19461995 0.011159781 -0.17679414 -0.1602239 -0.26744908
0.021840347 0.015520821 0.104450114 0.01201845 -0.018241407 0.13275145 0.0050379746 0.0019660795
-0.13491967 -0.16951968 0.06228741 0.012561984 -0.13971123 0.14844723 0.045936853 0.037451994
00000000: aa7e 8b3d 64d9 223e 4593 d73d 12ff 12be
00000010: 4dac 963c 338f 023d 6741 1abc 394b 40bd
00000020: fba7 a3bc 8b49 c93d 7c4a 223e c42e 843b
00000030: 75a9 5bbd f592 9d3e c3fd 693e 3b50 1a3d
00000040: 0c68 17bf 349c e3bd 01a5 123e 82c7 66bc
00000050: f54e 113f 620b 3bbf 5fd5 ad3e 2ecc 9d3d
00000060: a694 23bd a860 fcbd 0a12 ffbe 80ec b63d
00000070: c508 483f 25ab 6b3e c9c3 5ebf d05e 15be
00000080: 4602 10bf 0800 9c3e 39d9 453e f30b 283e
00000090: c50f 1aba b02f 62bd cff3 07bc 055f 923d
000000a0: 591e c43b a261 ecbb aafd c7bd 6dfb 2dbd
000000b0: 4a3b 2cbd f2fa dcbc 3178 f43c cfed 2abe
000000c0: 6fed 053f daf2 65bc 47da 343d 677d 393d
000000d0: 7124 a23e e826 98bd b02d babd 7546 10bf
000000e0: 6b5e 0e3c 33d7 c3bc 64a6 95bc 97ea 763e
000000f0: 13cf b6bc ef04 b83b 17fc 8abc 833c 8bbd
00000100: 910d 993d 1cca d0bb d69c 093e 1290 85bd
00000110: 6072 7c3d 3c8a 00bc 27af 94bc 89e9 2dbd
00000120: 0fce 12bc 6ace 09be b140 33bd bb0a 513e
00000130: 8627 0ebc b969 613b ea97 0dbd 3967 4ebd
00000140: c6bb a53a d54c 9c3c 7c4c 10bd eb5c 43bc
00000150: b20d 983d 9a80 98be b2ca 433d cf9c 833d
00000160: c0aa acbe 24e3 8abc d863 bcbd 3d57 55bd
00000170: 0068 96bd 2c01 8fbe bd48 fbbd 5522 83bd
00000180: 6ec6 59be ac51 82bf 2ed3 03bc 4340 fdbe
00000190: 75d8 1c3e ad37 683d ee8d 823e e392 683e
000001a0: 4b83 09be c975 823e dcb7 64be 2aad 2f3e
000001b0: e6d1 853d e012 993d 901f 7dbd b1cf d8bb
000001c0: a0e2 abbe 244f 29bc 55c6 d73d 39a7 633d
000001d0: 7715 22bc ed56 963e e04f 883d a617 4dbd
000001e0: a9cf 8ebe 1912 f93c f731 a13d d733 f03d
000001f0: a623 1c3d 5cb4 07be 2d03 203e 674d c33e
00000200: 5fef 003e 256e f9bd 1e9d 05bc d8d1 92bb
00000210: 4bc3 34b9 402b 613d 605a e03c 48a7 8fbd
00000220: aab7 1dbd 8612 623c 9c7e fa3d 23bb 8fbc
00000230: 765a d03d 8a6c 9b3c 9c5c a0bc 0ab4 1cbc
00000240: 6d00 6c3a 52c4 ab3d 2614 0e3e fbb7 bebd
00000250: ac0a a9bc cbbe 6f3e ac3f b43c 661b e9bc
00000260: e78d debd 53a0 41be 4f62 e6bd 0020 443c
00000270: 1816 e03e 5599 09bd a810 2dbd d4e9 63be
00000280: 023d 933d a30a c8bd 4d70 063e 95ac f7be
00000290: 33bb 93bb 70ce 76be f099 90bd a63d 3bbe
000002a0: f9a3 6ebe 660a 273d 66a7 953e d6b2 223c
000002b0: 548b 39bd 3881 8cbe a460 f7bd b5d5 253e
000002c0: 1a81 0e3e 4700 90be 41b2 c4bc a7ce eebe
000002d0: c523 863c 1b91 0d3d 61a5 083d b8b8 5ebd
000002e0: cab5 9a3d b187 53bd 1a64 3fbd ae1c 693c
000002f0: f7d9 af3c 79fa acbc 41c6 06bb 66d6 8f3c
00000300: f414 03be 5076 3e3d d918 9f3d f4a1 ccbe
00000310: d2df c0bc df68 873d 5de7 02be 1e05 a93d
00000320: b831 093e 40da bcbd abf8 af3c d658 0fbe
00000330: 1707 d33e 80e1 8ebe 3b08 f93d 63ae b63e
00000340: c3fd 1b3e febb 86bd 0ee1 36bd 0383 bf3e
00000350: 7126 b93c 2461 633e f896 2e3e c920 2abd
00000360: b9f9 cd3c a342 90bd ccad 1b3e 8f0e 4abd
00000370: 6223 4f3c db0e 0b3e 857c 5d3d 0db8 e13c
00000380: 0dc2 38be 5316 34be 70e0 0cbe d49f 6b3c
00000390: 3ec0 1bbf b0b6 c8bb a301 8b3c 44e7 4dbe
000003a0: 165b b03c 541b afbd c235 01be 744a 473e
000003b0: 84d7 363c 8609 35be bc11 24be 16ef 88be
000003c0: 87ea b23c 0b4b 7e3c f1e9 d53d 08e9 443c
000003d0: 016f 95bc ffef 073e 9815 a53b 57d9 003b
000003e0: 6228 0abe 9196 2dbe 1521 7f3d c8d0 4d3c
000003f0: 7610 0fbe 8d02 183e 4828 3c3d 4367 193d

onnx::Conv_779 f4 [24]
0.5615305 0.284469 0.21278629 0.6318736 0.46205407 0.10750919 0.14229384 0.20810789
-0.23447302 0.33856696 0.28488126 0.0788362 0.6014602 -0.5046293 0.21562701 0.1530003
0.10580678 0.010612503 0.26786187 0.1956024 0.14999631 0.48868886 0.13132817 0.25507727
00000000: 76c0 0f3f eca5 913e a6e4 593e 78c2 213f
00000010: 5a92 ec3e c72d dc3d 7ab5 113e 3c1a 553e
00000020: b219 70be a658 ad3e f5db 913e e074 a13d
00000030: 4cf9 193f 632f 01bf 54cd 5c3e 1cac 1c3e
00000040: 3ab1 d83d 10e0 2d3c 3125 893e ff4b 483e
00000050: a298 193e 6d35 fa3e e47a 063e 7d99 823e
